{"format": "layers-model", "generatedBy": "keras v2.8.0", "convertedBy": "TensorFlow.js Converter v3.14.0", "modelTopology": {"keras_version": "2.8.0", "backend": "tensorflow", "model_config": {"class_name": "Functional", "config": {"name": "model_6", "layers": [{"class_name": "InputLayer", "config": {"batch_input_shape": [null, 512, 512, 3], "dtype": "float32", "sparse": false, "ragged": false, "name": "input_8"}, "name": "input_8", "inbound_nodes": []}, {"class_name": "Conv2D", "config": {"name": "conv2d_286", "trainable": true, "dtype": "float32", "filters": 2, "kernel_size": [3, 3], "strides": [1, 1], "padding": "same", "data_format": "channels_last", "dilation_rate": [1, 1], "groups": 1, "activation": "linear", "use_bias": false, "kernel_initializer": {"class_name": "GlorotUniform", "config": {"seed": null}}, "bias_initializer": {"class_name": "Zeros", "config": {}}, "kernel_regularizer": null, "bias_regularizer": null, "activity_regularizer": null, "kernel_constraint": null, "bias_constraint": null}, "name": "conv2d_286", "inbound_nodes": [[["input_8", 0, 0, {}]]]}, {"class_name": "BatchNormalization", "config": {"name": "batch_normalization_426", "trainable": true, "dtype": "float32", "axis": [3], "momentum": 0.99, "epsilon": 0.001, "center": true, "scale": false, "beta_initializer": {"class_name": "Zeros", "config": {}}, "gamma_initializer": {"class_name": "Ones", "config": {}}, "moving_mean_initializer": {"class_name": "Zeros", "config": {}}, "moving_variance_initializer": {"class_name": "Ones", "config": {}}, "beta_regularizer": null, "gamma_regularizer": null, "beta_constraint": null, "gamma_constraint": null}, "name": "batch_normalization_426", "inbound_nodes": [[["conv2d_286", 0, 0, {}]]]}, {"class_name": "Activation", "config": {"name": "activation_285", "trainable": true, "dtype": "float32", "activation": "relu"}, "name": "activation_285", "inbound_nodes": [[["batch_normalization_426", 0, 0, {}]]]}, {"class_name": "Conv2D", "config": {"name": "conv2d_287", "trainable": true, "dtype": "float32", "filters": 4, "kernel_size": [3, 3], "strides": [1, 1], "padding": "same", "data_format": "channels_last", "dilation_rate": [1, 1], "groups": 1, "activation": "linear", "use_bias": false, "kernel_initializer": {"class_name": "GlorotUniform", "config": {"seed": null}}, "bias_initializer": {"class_name": "Zeros", "config": {}}, "kernel_regularizer": null, "bias_regularizer": null, "activity_regularizer": null, "kernel_constraint": null, "bias_constraint": null}, "name": "conv2d_287", "inbound_nodes": [[["activation_285", 0, 0, {}]]]}, {"class_name": "BatchNormalization", "config": {"name": "batch_normalization_427", "trainable": true, "dtype": "float32", "axis": [3], "momentum": 0.99, "epsilon": 0.001, "center": true, "scale": false, "beta_initializer": {"class_name": "Zeros", "config": {}}, "gamma_initializer": {"class_name": "Ones", "config": {}}, "moving_mean_initializer": {"class_name": "Zeros", "config": {}}, "moving_variance_initializer": {"class_name": "Ones", "config": {}}, "beta_regularizer": null, "gamma_regularizer": null, "beta_constraint": null, "gamma_constraint": null}, "name": "batch_normalization_427", "inbound_nodes": [[["conv2d_287", 0, 0, {}]]]}, {"class_name": "Activation", "config": {"name": "activation_286", "trainable": true, "dtype": "float32", "activation": "relu"}, "name": "activation_286", "inbound_nodes": [[["batch_normalization_427", 0, 0, {}]]]}, {"class_name": "Conv2D", "config": {"name": "conv2d_288", "trainable": true, "dtype": "float32", "filters": 6, "kernel_size": [3, 3], "strides": [1, 1], "padding": "same", "data_format": "channels_last", "dilation_rate": [1, 1], "groups": 1, "activation": "linear", "use_bias": false, "kernel_initializer": {"class_name": "GlorotUniform", "config": {"seed": null}}, "bias_initializer": {"class_name": "Zeros", "config": {}}, "kernel_regularizer": null, "bias_regularizer": null, "activity_regularizer": null, "kernel_constraint": null, "bias_constraint": null}, "name": "conv2d_288", "inbound_nodes": [[["activation_286", 0, 0, {}]]]}, {"class_name": "BatchNormalization", "config": {"name": "batch_normalization_428", "trainable": true, "dtype": "float32", "axis": [3], "momentum": 0.99, "epsilon": 0.001, "center": true, "scale": false, "beta_initializer": {"class_name": "Zeros", "config": {}}, "gamma_initializer": {"class_name": "Ones", "config": {}}, "moving_mean_initializer": {"class_name": "Zeros", "config": {}}, "moving_variance_initializer": {"class_name": "Ones", "config": {}}, "beta_regularizer": null, "gamma_regularizer": null, "beta_constraint": null, "gamma_constraint": null}, "name": "batch_normalization_428", "inbound_nodes": [[["conv2d_288", 0, 0, {}]]]}, {"class_name": "Activation", "config": {"name": "activation_287", "trainable": true, "dtype": "float32", "activation": "relu"}, "name": "activation_287", "inbound_nodes": [[["batch_normalization_428", 0, 0, {}]]]}, {"class_name": "Conv2D", "config": {"name": "conv2d_285", "trainable": true, "dtype": "float32", "filters": 12, "kernel_size": [1, 1], "strides": [1, 1], "padding": "same", "data_format": "channels_last", "dilation_rate": [1, 1], "groups": 1, "activation": "linear", "use_bias": false, "kernel_initializer": {"class_name": "GlorotUniform", "config": {"seed": null}}, "bias_initializer": {"class_name": "Zeros", "config": {}}, "kernel_regularizer": null, "bias_regularizer": null, "activity_regularizer": null, "kernel_constraint": null, "bias_constraint": null}, "name": "conv2d_285", "inbound_nodes": [[["input_8", 0, 0, {}]]]}, {"class_name": "Concatenate", "config": {"name": "concatenate_65", "trainable": true, "dtype": "float32", "axis": 3}, "name": "concatenate_65", "inbound_nodes": [[["activation_285", 0, 0, {}], ["activation_286", 0, 0, {}], ["activation_287", 0, 0, {}]]]}, {"class_name": "BatchNormalization", "config": {"name": "batch_normalization_425", "trainable": true, "dtype": "float32", "axis": [3], "momentum": 0.99, "epsilon": 0.001, "center": true, "scale": false, "beta_initializer": {"class_name": "Zeros", "config": {}}, "gamma_initializer": {"class_name": "Ones", "config": {}}, "moving_mean_initializer": {"class_name": "Zeros", "config": {}}, "moving_variance_initializer": {"class_name": "Ones", "config": {}}, "beta_regularizer": null, "gamma_regularizer": null, "beta_constraint": null, "gamma_constraint": null}, "name": "batch_normalization_425", "inbound_nodes": [[["conv2d_285", 0, 0, {}]]]}, {"class_name": "BatchNormalization", "config": {"name": "batch_normalization_429", "trainable": true, "dtype": "float32", "axis": [3], "momentum": 0.99, "epsilon": 0.001, "center": true, "scale": true, "beta_initializer": {"class_name": "Zeros", "config": {}}, "gamma_initializer": {"class_name": "Ones", "config": {}}, "moving_mean_initializer": {"class_name": "Zeros", "config": {}}, "moving_variance_initializer": {"class_name": "Ones", "config": {}}, "beta_regularizer": null, "gamma_regularizer": null, "beta_constraint": null, "gamma_constraint": null}, "name": "batch_normalization_429", "inbound_nodes": [[["concatenate_65", 0, 0, {}]]]}, {"class_name": "Add", "config": {"name": "add_95", "trainable": true, "dtype": "float32"}, "name": "add_95", "inbound_nodes": [[["batch_normalization_425", 0, 0, {}], ["batch_normalization_429", 0, 0, {}]]]}, {"class_name": "Activation", "config": {"name": "activation_288", "trainable": true, "dtype": "float32", "activation": "relu"}, "name": "activation_288", "inbound_nodes": [[["add_95", 0, 0, {}]]]}, {"class_name": "BatchNormalization", "config": {"name": "batch_normalization_430", "trainable": true, "dtype": "float32", "axis": [3], "momentum": 0.99, "epsilon": 0.001, "center": true, "scale": true, "beta_initializer": {"class_name": "Zeros", "config": {}}, "gamma_initializer": {"class_name": "Ones", "config": {}}, "moving_mean_initializer": {"class_name": "Zeros", "config": {}}, "moving_variance_initializer": {"class_name": "Ones", "config": {}}, "beta_regularizer": null, "gamma_regularizer": null, "beta_constraint": null, "gamma_constraint": null}, "name": "batch_normalization_430", "inbound_nodes": [[["activation_288", 0, 0, {}]]]}, {"class_name": "MaxPooling2D", "config": {"name": "max_pooling2d_20", "trainable": true, "dtype": "float32", "pool_size": [2, 2], "padding": "valid", "strides": [2, 2], "data_format": "channels_last"}, "name": "max_pooling2d_20", "inbound_nodes": [[["batch_normalization_430", 0, 0, {}]]]}, {"class_name": "Conv2D", "config": {"name": "conv2d_298", "trainable": true, "dtype": "float32", "filters": 4, "kernel_size": [3, 3], "strides": [1, 1], "padding": "same", "data_format": "channels_last", "dilation_rate": [1, 1], "groups": 1, "activation": "linear", "use_bias": false, "kernel_initializer": {"class_name": "GlorotUniform", "config": {"seed": null}}, "bias_initializer": {"class_name": "Zeros", "config": {}}, "kernel_regularizer": null, "bias_regularizer": null, "activity_regularizer": null, "kernel_constraint": null, "bias_constraint": null}, "name": "conv2d_298", "inbound_nodes": [[["max_pooling2d_20", 0, 0, {}]]]}, {"class_name": "BatchNormalization", "config": {"name": "batch_normalization_444", "trainable": true, "dtype": "float32", "axis": [3], "momentum": 0.99, "epsilon": 0.001, "center": true, "scale": false, "beta_initializer": {"class_name": "Zeros", "config": {}}, "gamma_initializer": {"class_name": "Ones", "config": {}}, "moving_mean_initializer": {"class_name": "Zeros", "config": {}}, "moving_variance_initializer": {"class_name": "Ones", "config": {}}, "beta_regularizer": null, "gamma_regularizer": null, "beta_constraint": null, "gamma_constraint": null}, "name": "batch_normalization_444", "inbound_nodes": [[["conv2d_298", 0, 0, {}]]]}, {"class_name": "Activation", "config": {"name": "activation_297", "trainable": true, "dtype": "float32", "activation": "relu"}, "name": "activation_297", "inbound_nodes": [[["batch_normalization_444", 0, 0, {}]]]}, {"class_name": "Conv2D", "config": {"name": "conv2d_299", "trainable": true, "dtype": "float32", "filters": 8, "kernel_size": [3, 3], "strides": [1, 1], "padding": "same", "data_format": "channels_last", "dilation_rate": [1, 1], "groups": 1, "activation": "linear", "use_bias": false, "kernel_initializer": {"class_name": "GlorotUniform", "config": {"seed": null}}, "bias_initializer": {"class_name": "Zeros", "config": {}}, "kernel_regularizer": null, "bias_regularizer": null, "activity_regularizer": null, "kernel_constraint": null, "bias_constraint": null}, "name": "conv2d_299", "inbound_nodes": [[["activation_297", 0, 0, {}]]]}, {"class_name": "BatchNormalization", "config": {"name": "batch_normalization_445", "trainable": true, "dtype": "float32", "axis": [3], "momentum": 0.99, "epsilon": 0.001, "center": true, "scale": false, "beta_initializer": {"class_name": "Zeros", "config": {}}, "gamma_initializer": {"class_name": "Ones", "config": {}}, "moving_mean_initializer": {"class_name": "Zeros", "config": {}}, "moving_variance_initializer": {"class_name": "Ones", "config": {}}, "beta_regularizer": null, "gamma_regularizer": null, "beta_constraint": null, "gamma_constraint": null}, "name": "batch_normalization_445", "inbound_nodes": [[["conv2d_299", 0, 0, {}]]]}, {"class_name": "Activation", "config": {"name": "activation_298", "trainable": true, "dtype": "float32", "activation": "relu"}, "name": "activation_298", "inbound_nodes": [[["batch_normalization_445", 0, 0, {}]]]}, {"class_name": "Conv2D", "config": {"name": "conv2d_300", "trainable": true, "dtype": "float32", "filters": 13, "kernel_size": [3, 3], "strides": [1, 1], "padding": "same", "data_format": "channels_last", "dilation_rate": [1, 1], "groups": 1, "activation": "linear", "use_bias": false, "kernel_initializer": {"class_name": "GlorotUniform", "config": {"seed": null}}, "bias_initializer": {"class_name": "Zeros", "config": {}}, "kernel_regularizer": null, "bias_regularizer": null, "activity_regularizer": null, "kernel_constraint": null, "bias_constraint": null}, "name": "conv2d_300", "inbound_nodes": [[["activation_298", 0, 0, {}]]]}, {"class_name": "BatchNormalization", "config": {"name": "batch_normalization_446", "trainable": true, "dtype": "float32", "axis": [3], "momentum": 0.99, "epsilon": 0.001, "center": true, "scale": false, "beta_initializer": {"class_name": "Zeros", "config": {}}, "gamma_initializer": {"class_name": "Ones", "config": {}}, "moving_mean_initializer": {"class_name": "Zeros", "config": {}}, "moving_variance_initializer": {"class_name": "Ones", "config": {}}, "beta_regularizer": null, "gamma_regularizer": null, "beta_constraint": null, "gamma_constraint": null}, "name": "batch_normalization_446", "inbound_nodes": [[["conv2d_300", 0, 0, {}]]]}, {"class_name": "Activation", "config": {"name": "activation_299", "trainable": true, "dtype": "float32", "activation": "relu"}, "name": "activation_299", "inbound_nodes": [[["batch_normalization_446", 0, 0, {}]]]}, {"class_name": "Conv2D", "config": {"name": "conv2d_297", "trainable": true, "dtype": "float32", "filters": 25, "kernel_size": [1, 1], "strides": [1, 1], "padding": "same", "data_format": "channels_last", "dilation_rate": [1, 1], "groups": 1, "activation": "linear", "use_bias": false, "kernel_initializer": {"class_name": "GlorotUniform", "config": {"seed": null}}, "bias_initializer": {"class_name": "Zeros", "config": {}}, "kernel_regularizer": null, "bias_regularizer": null, "activity_regularizer": null, "kernel_constraint": null, "bias_constraint": null}, "name": "conv2d_297", "inbound_nodes": [[["max_pooling2d_20", 0, 0, {}]]]}, {"class_name": "Concatenate", "config": {"name": "concatenate_66", "trainable": true, "dtype": "float32", "axis": 3}, "name": "concatenate_66", "inbound_nodes": [[["activation_297", 0, 0, {}], ["activation_298", 0, 0, {}], ["activation_299", 0, 0, {}]]]}, {"class_name": "BatchNormalization", "config": {"name": "batch_normalization_443", "trainable": true, "dtype": "float32", "axis": [3], "momentum": 0.99, "epsilon": 0.001, "center": true, "scale": false, "beta_initializer": {"class_name": "Zeros", "config": {}}, "gamma_initializer": {"class_name": "Ones", "config": {}}, "moving_mean_initializer": {"class_name": "Zeros", "config": {}}, "moving_variance_initializer": {"class_name": "Ones", "config": {}}, "beta_regularizer": null, "gamma_regularizer": null, "beta_constraint": null, "gamma_constraint": null}, "name": "batch_normalization_443", "inbound_nodes": [[["conv2d_297", 0, 0, {}]]]}, {"class_name": "BatchNormalization", "config": {"name": "batch_normalization_447", "trainable": true, "dtype": "float32", "axis": [3], "momentum": 0.99, "epsilon": 0.001, "center": true, "scale": true, "beta_initializer": {"class_name": "Zeros", "config": {}}, "gamma_initializer": {"class_name": "Ones", "config": {}}, "moving_mean_initializer": {"class_name": "Zeros", "config": {}}, "moving_variance_initializer": {"class_name": "Ones", "config": {}}, "beta_regularizer": null, "gamma_regularizer": null, "beta_constraint": null, "gamma_constraint": null}, "name": "batch_normalization_447", "inbound_nodes": [[["concatenate_66", 0, 0, {}]]]}, {"class_name": "Add", "config": {"name": "add_100", "trainable": true, "dtype": "float32"}, "name": "add_100", "inbound_nodes": [[["batch_normalization_443", 0, 0, {}], ["batch_normalization_447", 0, 0, {}]]]}, {"class_name": "Activation", "config": {"name": "activation_300", "trainable": true, "dtype": "float32", "activation": "relu"}, "name": "activation_300", "inbound_nodes": [[["add_100", 0, 0, {}]]]}, {"class_name": "BatchNormalization", "config": {"name": "batch_normalization_448", "trainable": true, "dtype": "float32", "axis": [3], "momentum": 0.99, "epsilon": 0.001, "center": true, "scale": true, "beta_initializer": {"class_name": "Zeros", "config": {}}, "gamma_initializer": {"class_name": "Ones", "config": {}}, "moving_mean_initializer": {"class_name": "Zeros", "config": {}}, "moving_variance_initializer": {"class_name": "Ones", "config": {}}, "beta_regularizer": null, "gamma_regularizer": null, "beta_constraint": null, "gamma_constraint": null}, "name": "batch_normalization_448", "inbound_nodes": [[["activation_300", 0, 0, {}]]]}, {"class_name": "MaxPooling2D", "config": {"name": "max_pooling2d_21", "trainable": true, "dtype": "float32", "pool_size": [2, 2], "padding": "valid", "strides": [2, 2], "data_format": "channels_last"}, "name": "max_pooling2d_21", "inbound_nodes": [[["batch_normalization_448", 0, 0, {}]]]}, {"class_name": "Conv2D", "config": {"name": "conv2d_308", "trainable": true, "dtype": "float32", "filters": 8, "kernel_size": [3, 3], "strides": [1, 1], "padding": "same", "data_format": "channels_last", "dilation_rate": [1, 1], "groups": 1, "activation": "linear", "use_bias": false, "kernel_initializer": {"class_name": "GlorotUniform", "config": {"seed": null}}, "bias_initializer": {"class_name": "Zeros", "config": {}}, "kernel_regularizer": null, "bias_regularizer": null, "activity_regularizer": null, "kernel_constraint": null, "bias_constraint": null}, "name": "conv2d_308", "inbound_nodes": [[["max_pooling2d_21", 0, 0, {}]]]}, {"class_name": "BatchNormalization", "config": {"name": "batch_normalization_459", "trainable": true, "dtype": "float32", "axis": [3], "momentum": 0.99, "epsilon": 0.001, "center": true, "scale": false, "beta_initializer": {"class_name": "Zeros", "config": {}}, "gamma_initializer": {"class_name": "Ones", "config": {}}, "moving_mean_initializer": {"class_name": "Zeros", "config": {}}, "moving_variance_initializer": {"class_name": "Ones", "config": {}}, "beta_regularizer": null, "gamma_regularizer": null, "beta_constraint": null, "gamma_constraint": null}, "name": "batch_normalization_459", "inbound_nodes": [[["conv2d_308", 0, 0, {}]]]}, {"class_name": "Activation", "config": {"name": "activation_307", "trainable": true, "dtype": "float32", "activation": "relu"}, "name": "activation_307", "inbound_nodes": [[["batch_normalization_459", 0, 0, {}]]]}, {"class_name": "Conv2D", "config": {"name": "conv2d_309", "trainable": true, "dtype": "float32", "filters": 17, "kernel_size": [3, 3], "strides": [1, 1], "padding": "same", "data_format": "channels_last", "dilation_rate": [1, 1], "groups": 1, "activation": "linear", "use_bias": false, "kernel_initializer": {"class_name": "GlorotUniform", "config": {"seed": null}}, "bias_initializer": {"class_name": "Zeros", "config": {}}, "kernel_regularizer": null, "bias_regularizer": null, "activity_regularizer": null, "kernel_constraint": null, "bias_constraint": null}, "name": "conv2d_309", "inbound_nodes": [[["activation_307", 0, 0, {}]]]}, {"class_name": "BatchNormalization", "config": {"name": "batch_normalization_460", "trainable": true, "dtype": "float32", "axis": [3], "momentum": 0.99, "epsilon": 0.001, "center": true, "scale": false, "beta_initializer": {"class_name": "Zeros", "config": {}}, "gamma_initializer": {"class_name": "Ones", "config": {}}, "moving_mean_initializer": {"class_name": "Zeros", "config": {}}, "moving_variance_initializer": {"class_name": "Ones", "config": {}}, "beta_regularizer": null, "gamma_regularizer": null, "beta_constraint": null, "gamma_constraint": null}, "name": "batch_normalization_460", "inbound_nodes": [[["conv2d_309", 0, 0, {}]]]}, {"class_name": "Activation", "config": {"name": "activation_308", "trainable": true, "dtype": "float32", "activation": "relu"}, "name": "activation_308", "inbound_nodes": [[["batch_normalization_460", 0, 0, {}]]]}, {"class_name": "Conv2D", "config": {"name": "conv2d_310", "trainable": true, "dtype": "float32", "filters": 26, "kernel_size": [3, 3], "strides": [1, 1], "padding": "same", "data_format": "channels_last", "dilation_rate": [1, 1], "groups": 1, "activation": "linear", "use_bias": false, "kernel_initializer": {"class_name": "GlorotUniform", "config": {"seed": null}}, "bias_initializer": {"class_name": "Zeros", "config": {}}, "kernel_regularizer": null, "bias_regularizer": null, "activity_regularizer": null, "kernel_constraint": null, "bias_constraint": null}, "name": "conv2d_310", "inbound_nodes": [[["activation_308", 0, 0, {}]]]}, {"class_name": "BatchNormalization", "config": {"name": "batch_normalization_461", "trainable": true, "dtype": "float32", "axis": [3], "momentum": 0.99, "epsilon": 0.001, "center": true, "scale": false, "beta_initializer": {"class_name": "Zeros", "config": {}}, "gamma_initializer": {"class_name": "Ones", "config": {}}, "moving_mean_initializer": {"class_name": "Zeros", "config": {}}, "moving_variance_initializer": {"class_name": "Ones", "config": {}}, "beta_regularizer": null, "gamma_regularizer": null, "beta_constraint": null, "gamma_constraint": null}, "name": "batch_normalization_461", "inbound_nodes": [[["conv2d_310", 0, 0, {}]]]}, {"class_name": "Activation", "config": {"name": "activation_309", "trainable": true, "dtype": "float32", "activation": "relu"}, "name": "activation_309", "inbound_nodes": [[["batch_normalization_461", 0, 0, {}]]]}, {"class_name": "Conv2D", "config": {"name": "conv2d_307", "trainable": true, "dtype": "float32", "filters": 51, "kernel_size": [1, 1], "strides": [1, 1], "padding": "same", "data_format": "channels_last", "dilation_rate": [1, 1], "groups": 1, "activation": "linear", "use_bias": false, "kernel_initializer": {"class_name": "GlorotUniform", "config": {"seed": null}}, "bias_initializer": {"class_name": "Zeros", "config": {}}, "kernel_regularizer": null, "bias_regularizer": null, "activity_regularizer": null, "kernel_constraint": null, "bias_constraint": null}, "name": "conv2d_307", "inbound_nodes": [[["max_pooling2d_21", 0, 0, {}]]]}, {"class_name": "Concatenate", "config": {"name": "concatenate_67", "trainable": true, "dtype": "float32", "axis": 3}, "name": "concatenate_67", "inbound_nodes": [[["activation_307", 0, 0, {}], ["activation_308", 0, 0, {}], ["activation_309", 0, 0, {}]]]}, {"class_name": "BatchNormalization", "config": {"name": "batch_normalization_458", "trainable": true, "dtype": "float32", "axis": [3], "momentum": 0.99, "epsilon": 0.001, "center": true, "scale": false, "beta_initializer": {"class_name": "Zeros", "config": {}}, "gamma_initializer": {"class_name": "Ones", "config": {}}, "moving_mean_initializer": {"class_name": "Zeros", "config": {}}, "moving_variance_initializer": {"class_name": "Ones", "config": {}}, "beta_regularizer": null, "gamma_regularizer": null, "beta_constraint": null, "gamma_constraint": null}, "name": "batch_normalization_458", "inbound_nodes": [[["conv2d_307", 0, 0, {}]]]}, {"class_name": "BatchNormalization", "config": {"name": "batch_normalization_462", "trainable": true, "dtype": "float32", "axis": [3], "momentum": 0.99, "epsilon": 0.001, "center": true, "scale": true, "beta_initializer": {"class_name": "Zeros", "config": {}}, "gamma_initializer": {"class_name": "Ones", "config": {}}, "moving_mean_initializer": {"class_name": "Zeros", "config": {}}, "moving_variance_initializer": {"class_name": "Ones", "config": {}}, "beta_regularizer": null, "gamma_regularizer": null, "beta_constraint": null, "gamma_constraint": null}, "name": "batch_normalization_462", "inbound_nodes": [[["concatenate_67", 0, 0, {}]]]}, {"class_name": "Add", "config": {"name": "add_104", "trainable": true, "dtype": "float32"}, "name": "add_104", "inbound_nodes": [[["batch_normalization_458", 0, 0, {}], ["batch_normalization_462", 0, 0, {}]]]}, {"class_name": "Activation", "config": {"name": "activation_310", "trainable": true, "dtype": "float32", "activation": "relu"}, "name": "activation_310", "inbound_nodes": [[["add_104", 0, 0, {}]]]}, {"class_name": "BatchNormalization", "config": {"name": "batch_normalization_463", "trainable": true, "dtype": "float32", "axis": [3], "momentum": 0.99, "epsilon": 0.001, "center": true, "scale": true, "beta_initializer": {"class_name": "Zeros", "config": {}}, "gamma_initializer": {"class_name": "Ones", "config": {}}, "moving_mean_initializer": {"class_name": "Zeros", "config": {}}, "moving_variance_initializer": {"class_name": "Ones", "config": {}}, "beta_regularizer": null, "gamma_regularizer": null, "beta_constraint": null, "gamma_constraint": null}, "name": "batch_normalization_463", "inbound_nodes": [[["activation_310", 0, 0, {}]]]}, {"class_name": "MaxPooling2D", "config": {"name": "max_pooling2d_22", "trainable": true, "dtype": "float32", "pool_size": [2, 2], "padding": "valid", "strides": [2, 2], "data_format": "channels_last"}, "name": "max_pooling2d_22", "inbound_nodes": [[["batch_normalization_463", 0, 0, {}]]]}, {"class_name": "Conv2D", "config": {"name": "conv2d_316", "trainable": true, "dtype": "float32", "filters": 17, "kernel_size": [3, 3], "strides": [1, 1], "padding": "same", "data_format": "channels_last", "dilation_rate": [1, 1], "groups": 1, "activation": "linear", "use_bias": false, "kernel_initializer": {"class_name": "GlorotUniform", "config": {"seed": null}}, "bias_initializer": {"class_name": "Zeros", "config": {}}, "kernel_regularizer": null, "bias_regularizer": null, "activity_regularizer": null, "kernel_constraint": null, "bias_constraint": null}, "name": "conv2d_316", "inbound_nodes": [[["max_pooling2d_22", 0, 0, {}]]]}, {"class_name": "BatchNormalization", "config": {"name": "batch_normalization_471", "trainable": true, "dtype": "float32", "axis": [3], "momentum": 0.99, "epsilon": 0.001, "center": true, "scale": false, "beta_initializer": {"class_name": "Zeros", "config": {}}, "gamma_initializer": {"class_name": "Ones", "config": {}}, "moving_mean_initializer": {"class_name": "Zeros", "config": {}}, "moving_variance_initializer": {"class_name": "Ones", "config": {}}, "beta_regularizer": null, "gamma_regularizer": null, "beta_constraint": null, "gamma_constraint": null}, "name": "batch_normalization_471", "inbound_nodes": [[["conv2d_316", 0, 0, {}]]]}, {"class_name": "Activation", "config": {"name": "activation_315", "trainable": true, "dtype": "float32", "activation": "relu"}, "name": "activation_315", "inbound_nodes": [[["batch_normalization_471", 0, 0, {}]]]}, {"class_name": "Conv2D", "config": {"name": "conv2d_317", "trainable": true, "dtype": "float32", "filters": 35, "kernel_size": [3, 3], "strides": [1, 1], "padding": "same", "data_format": "channels_last", "dilation_rate": [1, 1], "groups": 1, "activation": "linear", "use_bias": false, "kernel_initializer": {"class_name": "GlorotUniform", "config": {"seed": null}}, "bias_initializer": {"class_name": "Zeros", "config": {}}, "kernel_regularizer": null, "bias_regularizer": null, "activity_regularizer": null, "kernel_constraint": null, "bias_constraint": null}, "name": "conv2d_317", "inbound_nodes": [[["activation_315", 0, 0, {}]]]}, {"class_name": "BatchNormalization", "config": {"name": "batch_normalization_472", "trainable": true, "dtype": "float32", "axis": [3], "momentum": 0.99, "epsilon": 0.001, "center": true, "scale": false, "beta_initializer": {"class_name": "Zeros", "config": {}}, "gamma_initializer": {"class_name": "Ones", "config": {}}, "moving_mean_initializer": {"class_name": "Zeros", "config": {}}, "moving_variance_initializer": {"class_name": "Ones", "config": {}}, "beta_regularizer": null, "gamma_regularizer": null, "beta_constraint": null, "gamma_constraint": null}, "name": "batch_normalization_472", "inbound_nodes": [[["conv2d_317", 0, 0, {}]]]}, {"class_name": "Activation", "config": {"name": "activation_316", "trainable": true, "dtype": "float32", "activation": "relu"}, "name": "activation_316", "inbound_nodes": [[["batch_normalization_472", 0, 0, {}]]]}, {"class_name": "Conv2D", "config": {"name": "conv2d_318", "trainable": true, "dtype": "float32", "filters": 53, "kernel_size": [3, 3], "strides": [1, 1], "padding": "same", "data_format": "channels_last", "dilation_rate": [1, 1], "groups": 1, "activation": "linear", "use_bias": false, "kernel_initializer": {"class_name": "GlorotUniform", "config": {"seed": null}}, "bias_initializer": {"class_name": "Zeros", "config": {}}, "kernel_regularizer": null, "bias_regularizer": null, "activity_regularizer": null, "kernel_constraint": null, "bias_constraint": null}, "name": "conv2d_318", "inbound_nodes": [[["activation_316", 0, 0, {}]]]}, {"class_name": "BatchNormalization", "config": {"name": "batch_normalization_473", "trainable": true, "dtype": "float32", "axis": [3], "momentum": 0.99, "epsilon": 0.001, "center": true, "scale": false, "beta_initializer": {"class_name": "Zeros", "config": {}}, "gamma_initializer": {"class_name": "Ones", "config": {}}, "moving_mean_initializer": {"class_name": "Zeros", "config": {}}, "moving_variance_initializer": {"class_name": "Ones", "config": {}}, "beta_regularizer": null, "gamma_regularizer": null, "beta_constraint": null, "gamma_constraint": null}, "name": "batch_normalization_473", "inbound_nodes": [[["conv2d_318", 0, 0, {}]]]}, {"class_name": "Activation", "config": {"name": "activation_317", "trainable": true, "dtype": "float32", "activation": "relu"}, "name": "activation_317", "inbound_nodes": [[["batch_normalization_473", 0, 0, {}]]]}, {"class_name": "Conv2D", "config": {"name": "conv2d_315", "trainable": true, "dtype": "float32", "filters": 105, "kernel_size": [1, 1], "strides": [1, 1], "padding": "same", "data_format": "channels_last", "dilation_rate": [1, 1], "groups": 1, "activation": "linear", "use_bias": false, "kernel_initializer": {"class_name": "GlorotUniform", "config": {"seed": null}}, "bias_initializer": {"class_name": "Zeros", "config": {}}, "kernel_regularizer": null, "bias_regularizer": null, "activity_regularizer": null, "kernel_constraint": null, "bias_constraint": null}, "name": "conv2d_315", "inbound_nodes": [[["max_pooling2d_22", 0, 0, {}]]]}, {"class_name": "Concatenate", "config": {"name": "concatenate_68", "trainable": true, "dtype": "float32", "axis": 3}, "name": "concatenate_68", "inbound_nodes": [[["activation_315", 0, 0, {}], ["activation_316", 0, 0, {}], ["activation_317", 0, 0, {}]]]}, {"class_name": "BatchNormalization", "config": {"name": "batch_normalization_470", "trainable": true, "dtype": "float32", "axis": [3], "momentum": 0.99, "epsilon": 0.001, "center": true, "scale": false, "beta_initializer": {"class_name": "Zeros", "config": {}}, "gamma_initializer": {"class_name": "Ones", "config": {}}, "moving_mean_initializer": {"class_name": "Zeros", "config": {}}, "moving_variance_initializer": {"class_name": "Ones", "config": {}}, "beta_regularizer": null, "gamma_regularizer": null, "beta_constraint": null, "gamma_constraint": null}, "name": "batch_normalization_470", "inbound_nodes": [[["conv2d_315", 0, 0, {}]]]}, {"class_name": "BatchNormalization", "config": {"name": "batch_normalization_474", "trainable": true, "dtype": "float32", "axis": [3], "momentum": 0.99, "epsilon": 0.001, "center": true, "scale": true, "beta_initializer": {"class_name": "Zeros", "config": {}}, "gamma_initializer": {"class_name": "Ones", "config": {}}, "moving_mean_initializer": {"class_name": "Zeros", "config": {}}, "moving_variance_initializer": {"class_name": "Ones", "config": {}}, "beta_regularizer": null, "gamma_regularizer": null, "beta_constraint": null, "gamma_constraint": null}, "name": "batch_normalization_474", "inbound_nodes": [[["concatenate_68", 0, 0, {}]]]}, {"class_name": "Add", "config": {"name": "add_107", "trainable": true, "dtype": "float32"}, "name": "add_107", "inbound_nodes": [[["batch_normalization_470", 0, 0, {}], ["batch_normalization_474", 0, 0, {}]]]}, {"class_name": "Activation", "config": {"name": "activation_318", "trainable": true, "dtype": "float32", "activation": "relu"}, "name": "activation_318", "inbound_nodes": [[["add_107", 0, 0, {}]]]}, {"class_name": "BatchNormalization", "config": {"name": "batch_normalization_475", "trainable": true, "dtype": "float32", "axis": [3], "momentum": 0.99, "epsilon": 0.001, "center": true, "scale": true, "beta_initializer": {"class_name": "Zeros", "config": {}}, "gamma_initializer": {"class_name": "Ones", "config": {}}, "moving_mean_initializer": {"class_name": "Zeros", "config": {}}, "moving_variance_initializer": {"class_name": "Ones", "config": {}}, "beta_regularizer": null, "gamma_regularizer": null, "beta_constraint": null, "gamma_constraint": null}, "name": "batch_normalization_475", "inbound_nodes": [[["activation_318", 0, 0, {}]]]}, {"class_name": "MaxPooling2D", "config": {"name": "max_pooling2d_23", "trainable": true, "dtype": "float32", "pool_size": [2, 2], "padding": "valid", "strides": [2, 2], "data_format": "channels_last"}, "name": "max_pooling2d_23", "inbound_nodes": [[["batch_normalization_475", 0, 0, {}]]]}, {"class_name": "Conv2D", "config": {"name": "conv2d_322", "trainable": true, "dtype": "float32", "filters": 35, "kernel_size": [3, 3], "strides": [1, 1], "padding": "same", "data_format": "channels_last", "dilation_rate": [1, 1], "groups": 1, "activation": "linear", "use_bias": false, "kernel_initializer": {"class_name": "GlorotUniform", "config": {"seed": null}}, "bias_initializer": {"class_name": "Zeros", "config": {}}, "kernel_regularizer": null, "bias_regularizer": null, "activity_regularizer": null, "kernel_constraint": null, "bias_constraint": null}, "name": "conv2d_322", "inbound_nodes": [[["max_pooling2d_23", 0, 0, {}]]]}, {"class_name": "BatchNormalization", "config": {"name": "batch_normalization_480", "trainable": true, "dtype": "float32", "axis": [3], "momentum": 0.99, "epsilon": 0.001, "center": true, "scale": false, "beta_initializer": {"class_name": "Zeros", "config": {}}, "gamma_initializer": {"class_name": "Ones", "config": {}}, "moving_mean_initializer": {"class_name": "Zeros", "config": {}}, "moving_variance_initializer": {"class_name": "Ones", "config": {}}, "beta_regularizer": null, "gamma_regularizer": null, "beta_constraint": null, "gamma_constraint": null}, "name": "batch_normalization_480", "inbound_nodes": [[["conv2d_322", 0, 0, {}]]]}, {"class_name": "Activation", "config": {"name": "activation_321", "trainable": true, "dtype": "float32", "activation": "relu"}, "name": "activation_321", "inbound_nodes": [[["batch_normalization_480", 0, 0, {}]]]}, {"class_name": "Conv2D", "config": {"name": "conv2d_323", "trainable": true, "dtype": "float32", "filters": 71, "kernel_size": [3, 3], "strides": [1, 1], "padding": "same", "data_format": "channels_last", "dilation_rate": [1, 1], "groups": 1, "activation": "linear", "use_bias": false, "kernel_initializer": {"class_name": "GlorotUniform", "config": {"seed": null}}, "bias_initializer": {"class_name": "Zeros", "config": {}}, "kernel_regularizer": null, "bias_regularizer": null, "activity_regularizer": null, "kernel_constraint": null, "bias_constraint": null}, "name": "conv2d_323", "inbound_nodes": [[["activation_321", 0, 0, {}]]]}, {"class_name": "BatchNormalization", "config": {"name": "batch_normalization_481", "trainable": true, "dtype": "float32", "axis": [3], "momentum": 0.99, "epsilon": 0.001, "center": true, "scale": false, "beta_initializer": {"class_name": "Zeros", "config": {}}, "gamma_initializer": {"class_name": "Ones", "config": {}}, "moving_mean_initializer": {"class_name": "Zeros", "config": {}}, "moving_variance_initializer": {"class_name": "Ones", "config": {}}, "beta_regularizer": null, "gamma_regularizer": null, "beta_constraint": null, "gamma_constraint": null}, "name": "batch_normalization_481", "inbound_nodes": [[["conv2d_323", 0, 0, {}]]]}, {"class_name": "Activation", "config": {"name": "activation_322", "trainable": true, "dtype": "float32", "activation": "relu"}, "name": "activation_322", "inbound_nodes": [[["batch_normalization_481", 0, 0, {}]]]}, {"class_name": "Conv2D", "config": {"name": "conv2d_324", "trainable": true, "dtype": "float32", "filters": 106, "kernel_size": [3, 3], "strides": [1, 1], "padding": "same", "data_format": "channels_last", "dilation_rate": [1, 1], "groups": 1, "activation": "linear", "use_bias": false, "kernel_initializer": {"class_name": "GlorotUniform", "config": {"seed": null}}, "bias_initializer": {"class_name": "Zeros", "config": {}}, "kernel_regularizer": null, "bias_regularizer": null, "activity_regularizer": null, "kernel_constraint": null, "bias_constraint": null}, "name": "conv2d_324", "inbound_nodes": [[["activation_322", 0, 0, {}]]]}, {"class_name": "BatchNormalization", "config": {"name": "batch_normalization_482", "trainable": true, "dtype": "float32", "axis": [3], "momentum": 0.99, "epsilon": 0.001, "center": true, "scale": false, "beta_initializer": {"class_name": "Zeros", "config": {}}, "gamma_initializer": {"class_name": "Ones", "config": {}}, "moving_mean_initializer": {"class_name": "Zeros", "config": {}}, "moving_variance_initializer": {"class_name": "Ones", "config": {}}, "beta_regularizer": null, "gamma_regularizer": null, "beta_constraint": null, "gamma_constraint": null}, "name": "batch_normalization_482", "inbound_nodes": [[["conv2d_324", 0, 0, {}]]]}, {"class_name": "Activation", "config": {"name": "activation_323", "trainable": true, "dtype": "float32", "activation": "relu"}, "name": "activation_323", "inbound_nodes": [[["batch_normalization_482", 0, 0, {}]]]}, {"class_name": "Conv2D", "config": {"name": "conv2d_321", "trainable": true, "dtype": "float32", "filters": 212, "kernel_size": [1, 1], "strides": [1, 1], "padding": "same", "data_format": "channels_last", "dilation_rate": [1, 1], "groups": 1, "activation": "linear", "use_bias": false, "kernel_initializer": {"class_name": "GlorotUniform", "config": {"seed": null}}, "bias_initializer": {"class_name": "Zeros", "config": {}}, "kernel_regularizer": null, "bias_regularizer": null, "activity_regularizer": null, "kernel_constraint": null, "bias_constraint": null}, "name": "conv2d_321", "inbound_nodes": [[["max_pooling2d_23", 0, 0, {}]]]}, {"class_name": "Concatenate", "config": {"name": "concatenate_69", "trainable": true, "dtype": "float32", "axis": 3}, "name": "concatenate_69", "inbound_nodes": [[["activation_321", 0, 0, {}], ["activation_322", 0, 0, {}], ["activation_323", 0, 0, {}]]]}, {"class_name": "Conv2D", "config": {"name": "conv2d_320", "trainable": true, "dtype": "float32", "filters": 64, "kernel_size": [3, 3], "strides": [1, 1], "padding": "same", "data_format": "channels_last", "dilation_rate": [1, 1], "groups": 1, "activation": "linear", "use_bias": false, "kernel_initializer": {"class_name": "GlorotUniform", "config": {"seed": null}}, "bias_initializer": {"class_name": "Zeros", "config": {}}, "kernel_regularizer": null, "bias_regularizer": null, "activity_regularizer": null, "kernel_constraint": null, "bias_constraint": null}, "name": "conv2d_320", "inbound_nodes": [[["batch_normalization_475", 0, 0, {}]]]}, {"class_name": "BatchNormalization", "config": {"name": "batch_normalization_479", "trainable": true, "dtype": "float32", "axis": [3], "momentum": 0.99, "epsilon": 0.001, "center": true, "scale": false, "beta_initializer": {"class_name": "Zeros", "config": {}}, "gamma_initializer": {"class_name": "Ones", "config": {}}, "moving_mean_initializer": {"class_name": "Zeros", "config": {}}, "moving_variance_initializer": {"class_name": "Ones", "config": {}}, "beta_regularizer": null, "gamma_regularizer": null, "beta_constraint": null, "gamma_constraint": null}, "name": "batch_normalization_479", "inbound_nodes": [[["conv2d_321", 0, 0, {}]]]}, {"class_name": "BatchNormalization", "config": {"name": "batch_normalization_483", "trainable": true, "dtype": "float32", "axis": [3], "momentum": 0.99, "epsilon": 0.001, "center": true, "scale": true, "beta_initializer": {"class_name": "Zeros", "config": {}}, "gamma_initializer": {"class_name": "Ones", "config": {}}, "moving_mean_initializer": {"class_name": "Zeros", "config": {}}, "moving_variance_initializer": {"class_name": "Ones", "config": {}}, "beta_regularizer": null, "gamma_regularizer": null, "beta_constraint": null, "gamma_constraint": null}, "name": "batch_normalization_483", "inbound_nodes": [[["concatenate_69", 0, 0, {}]]]}, {"class_name": "Conv2D", "config": {"name": "conv2d_319", "trainable": true, "dtype": "float32", "filters": 64, "kernel_size": [1, 1], "strides": [1, 1], "padding": "same", "data_format": "channels_last", "dilation_rate": [1, 1], "groups": 1, "activation": "linear", "use_bias": false, "kernel_initializer": {"class_name": "GlorotUniform", "config": {"seed": null}}, "bias_initializer": {"class_name": "Zeros", "config": {}}, "kernel_regularizer": null, "bias_regularizer": null, "activity_regularizer": null, "kernel_constraint": null, "bias_constraint": null}, "name": "conv2d_319", "inbound_nodes": [[["batch_normalization_475", 0, 0, {}]]]}, {"class_name": "BatchNormalization", "config": {"name": "batch_normalization_477", "trainable": true, "dtype": "float32", "axis": [3], "momentum": 0.99, "epsilon": 0.001, "center": true, "scale": false, "beta_initializer": {"class_name": "Zeros", "config": {}}, "gamma_initializer": {"class_name": "Ones", "config": {}}, "moving_mean_initializer": {"class_name": "Zeros", "config": {}}, "moving_variance_initializer": {"class_name": "Ones", "config": {}}, "beta_regularizer": null, "gamma_regularizer": null, "beta_constraint": null, "gamma_constraint": null}, "name": "batch_normalization_477", "inbound_nodes": [[["conv2d_320", 0, 0, {}]]]}, {"class_name": "Add", "config": {"name": "add_109", "trainable": true, "dtype": "float32"}, "name": "add_109", "inbound_nodes": [[["batch_normalization_479", 0, 0, {}], ["batch_normalization_483", 0, 0, {}]]]}, {"class_name": "BatchNormalization", "config": {"name": "batch_normalization_476", "trainable": true, "dtype": "float32", "axis": [3], "momentum": 0.99, "epsilon": 0.001, "center": true, "scale": false, "beta_initializer": {"class_name": "Zeros", "config": {}}, "gamma_initializer": {"class_name": "Ones", "config": {}}, "moving_mean_initializer": {"class_name": "Zeros", "config": {}}, "moving_variance_initializer": {"class_name": "Ones", "config": {}}, "beta_regularizer": null, "gamma_regularizer": null, "beta_constraint": null, "gamma_constraint": null}, "name": "batch_normalization_476", "inbound_nodes": [[["conv2d_319", 0, 0, {}]]]}, {"class_name": "Activation", "config": {"name": "activation_319", "trainable": true, "dtype": "float32", "activation": "relu"}, "name": "activation_319", "inbound_nodes": [[["batch_normalization_477", 0, 0, {}]]]}, {"class_name": "Activation", "config": {"name": "activation_324", "trainable": true, "dtype": "float32", "activation": "relu"}, "name": "activation_324", "inbound_nodes": [[["add_109", 0, 0, {}]]]}, {"class_name": "Add", "config": {"name": "add_108", "trainable": true, "dtype": "float32"}, "name": "add_108", "inbound_nodes": [[["batch_normalization_476", 0, 0, {}], ["activation_319", 0, 0, {}]]]}, {"class_name": "BatchNormalization", "config": {"name": "batch_normalization_484", "trainable": true, "dtype": "float32", "axis": [3], "momentum": 0.99, "epsilon": 0.001, "center": true, "scale": true, "beta_initializer": {"class_name": "Zeros", "config": {}}, "gamma_initializer": {"class_name": "Ones", "config": {}}, "moving_mean_initializer": {"class_name": "Zeros", "config": {}}, "moving_variance_initializer": {"class_name": "Ones", "config": {}}, "beta_regularizer": null, "gamma_regularizer": null, "beta_constraint": null, "gamma_constraint": null}, "name": "batch_normalization_484", "inbound_nodes": [[["activation_324", 0, 0, {}]]]}, {"class_name": "Activation", "config": {"name": "activation_320", "trainable": true, "dtype": "float32", "activation": "relu"}, "name": "activation_320", "inbound_nodes": [[["add_108", 0, 0, {}]]]}, {"class_name": "Conv2DTranspose", "config": {"name": "conv2d_transpose_20", "trainable": true, "dtype": "float32", "filters": 64, "kernel_size": [2, 2], "strides": [2, 2], "padding": "same", "data_format": "channels_last", "dilation_rate": [1, 1], "groups": 1, "activation": "linear", "use_bias": true, "kernel_initializer": {"class_name": "GlorotUniform", "config": {"seed": null}}, "bias_initializer": {"class_name": "Zeros", "config": {}}, "kernel_regularizer": null, "bias_regularizer": null, "activity_regularizer": null, "kernel_constraint": null, "bias_constraint": null, "output_padding": null}, "name": "conv2d_transpose_20", "inbound_nodes": [[["batch_normalization_484", 0, 0, {}]]]}, {"class_name": "BatchNormalization", "config": {"name": "batch_normalization_478", "trainable": true, "dtype": "float32", "axis": [3], "momentum": 0.99, "epsilon": 0.001, "center": true, "scale": true, "beta_initializer": {"class_name": "Zeros", "config": {}}, "gamma_initializer": {"class_name": "Ones", "config": {}}, "moving_mean_initializer": {"class_name": "Zeros", "config": {}}, "moving_variance_initializer": {"class_name": "Ones", "config": {}}, "beta_regularizer": null, "gamma_regularizer": null, "beta_constraint": null, "gamma_constraint": null}, "name": "batch_normalization_478", "inbound_nodes": [[["activation_320", 0, 0, {}]]]}, {"class_name": "Concatenate", "config": {"name": "concatenate_70", "trainable": true, "dtype": "float32", "axis": 3}, "name": "concatenate_70", "inbound_nodes": [[["conv2d_transpose_20", 0, 0, {}], ["batch_normalization_478", 0, 0, {}]]]}, {"class_name": "Conv2D", "config": {"name": "conv2d_326", "trainable": true, "dtype": "float32", "filters": 17, "kernel_size": [3, 3], "strides": [1, 1], "padding": "same", "data_format": "channels_last", "dilation_rate": [1, 1], "groups": 1, "activation": "linear", "use_bias": false, "kernel_initializer": {"class_name": "GlorotUniform", "config": {"seed": null}}, "bias_initializer": {"class_name": "Zeros", "config": {}}, "kernel_regularizer": null, "bias_regularizer": null, "activity_regularizer": null, "kernel_constraint": null, "bias_constraint": null}, "name": "conv2d_326", "inbound_nodes": [[["concatenate_70", 0, 0, {}]]]}, {"class_name": "BatchNormalization", "config": {"name": "batch_normalization_486", "trainable": true, "dtype": "float32", "axis": [3], "momentum": 0.99, "epsilon": 0.001, "center": true, "scale": false, "beta_initializer": {"class_name": "Zeros", "config": {}}, "gamma_initializer": {"class_name": "Ones", "config": {}}, "moving_mean_initializer": {"class_name": "Zeros", "config": {}}, "moving_variance_initializer": {"class_name": "Ones", "config": {}}, "beta_regularizer": null, "gamma_regularizer": null, "beta_constraint": null, "gamma_constraint": null}, "name": "batch_normalization_486", "inbound_nodes": [[["conv2d_326", 0, 0, {}]]]}, {"class_name": "Activation", "config": {"name": "activation_325", "trainable": true, "dtype": "float32", "activation": "relu"}, "name": "activation_325", "inbound_nodes": [[["batch_normalization_486", 0, 0, {}]]]}, {"class_name": "Conv2D", "config": {"name": "conv2d_327", "trainable": true, "dtype": "float32", "filters": 35, "kernel_size": [3, 3], "strides": [1, 1], "padding": "same", "data_format": "channels_last", "dilation_rate": [1, 1], "groups": 1, "activation": "linear", "use_bias": false, "kernel_initializer": {"class_name": "GlorotUniform", "config": {"seed": null}}, "bias_initializer": {"class_name": "Zeros", "config": {}}, "kernel_regularizer": null, "bias_regularizer": null, "activity_regularizer": null, "kernel_constraint": null, "bias_constraint": null}, "name": "conv2d_327", "inbound_nodes": [[["activation_325", 0, 0, {}]]]}, {"class_name": "Conv2D", "config": {"name": "conv2d_312", "trainable": true, "dtype": "float32", "filters": 32, "kernel_size": [3, 3], "strides": [1, 1], "padding": "same", "data_format": "channels_last", "dilation_rate": [1, 1], "groups": 1, "activation": "linear", "use_bias": false, "kernel_initializer": {"class_name": "GlorotUniform", "config": {"seed": null}}, "bias_initializer": {"class_name": "Zeros", "config": {}}, "kernel_regularizer": null, "bias_regularizer": null, "activity_regularizer": null, "kernel_constraint": null, "bias_constraint": null}, "name": "conv2d_312", "inbound_nodes": [[["batch_normalization_463", 0, 0, {}]]]}, {"class_name": "BatchNormalization", "config": {"name": "batch_normalization_487", "trainable": true, "dtype": "float32", "axis": [3], "momentum": 0.99, "epsilon": 0.001, "center": true, "scale": false, "beta_initializer": {"class_name": "Zeros", "config": {}}, "gamma_initializer": {"class_name": "Ones", "config": {}}, "moving_mean_initializer": {"class_name": "Zeros", "config": {}}, "moving_variance_initializer": {"class_name": "Ones", "config": {}}, "beta_regularizer": null, "gamma_regularizer": null, "beta_constraint": null, "gamma_constraint": null}, "name": "batch_normalization_487", "inbound_nodes": [[["conv2d_327", 0, 0, {}]]]}, {"class_name": "Conv2D", "config": {"name": "conv2d_311", "trainable": true, "dtype": "float32", "filters": 32, "kernel_size": [1, 1], "strides": [1, 1], "padding": "same", "data_format": "channels_last", "dilation_rate": [1, 1], "groups": 1, "activation": "linear", "use_bias": false, "kernel_initializer": {"class_name": "GlorotUniform", "config": {"seed": null}}, "bias_initializer": {"class_name": "Zeros", "config": {}}, "kernel_regularizer": null, "bias_regularizer": null, "activity_regularizer": null, "kernel_constraint": null, "bias_constraint": null}, "name": "conv2d_311", "inbound_nodes": [[["batch_normalization_463", 0, 0, {}]]]}, {"class_name": "BatchNormalization", "config": {"name": "batch_normalization_465", "trainable": true, "dtype": "float32", "axis": [3], "momentum": 0.99, "epsilon": 0.001, "center": true, "scale": false, "beta_initializer": {"class_name": "Zeros", "config": {}}, "gamma_initializer": {"class_name": "Ones", "config": {}}, "moving_mean_initializer": {"class_name": "Zeros", "config": {}}, "moving_variance_initializer": {"class_name": "Ones", "config": {}}, "beta_regularizer": null, "gamma_regularizer": null, "beta_constraint": null, "gamma_constraint": null}, "name": "batch_normalization_465", "inbound_nodes": [[["conv2d_312", 0, 0, {}]]]}, {"class_name": "Activation", "config": {"name": "activation_326", "trainable": true, "dtype": "float32", "activation": "relu"}, "name": "activation_326", "inbound_nodes": [[["batch_normalization_487", 0, 0, {}]]]}, {"class_name": "BatchNormalization", "config": {"name": "batch_normalization_464", "trainable": true, "dtype": "float32", "axis": [3], "momentum": 0.99, "epsilon": 0.001, "center": true, "scale": false, "beta_initializer": {"class_name": "Zeros", "config": {}}, "gamma_initializer": {"class_name": "Ones", "config": {}}, "moving_mean_initializer": {"class_name": "Zeros", "config": {}}, "moving_variance_initializer": {"class_name": "Ones", "config": {}}, "beta_regularizer": null, "gamma_regularizer": null, "beta_constraint": null, "gamma_constraint": null}, "name": "batch_normalization_464", "inbound_nodes": [[["conv2d_311", 0, 0, {}]]]}, {"class_name": "Activation", "config": {"name": "activation_311", "trainable": true, "dtype": "float32", "activation": "relu"}, "name": "activation_311", "inbound_nodes": [[["batch_normalization_465", 0, 0, {}]]]}, {"class_name": "Conv2D", "config": {"name": "conv2d_328", "trainable": true, "dtype": "float32", "filters": 53, "kernel_size": [3, 3], "strides": [1, 1], "padding": "same", "data_format": "channels_last", "dilation_rate": [1, 1], "groups": 1, "activation": "linear", "use_bias": false, "kernel_initializer": {"class_name": "GlorotUniform", "config": {"seed": null}}, "bias_initializer": {"class_name": "Zeros", "config": {}}, "kernel_regularizer": null, "bias_regularizer": null, "activity_regularizer": null, "kernel_constraint": null, "bias_constraint": null}, "name": "conv2d_328", "inbound_nodes": [[["activation_326", 0, 0, {}]]]}, {"class_name": "Add", "config": {"name": "add_105", "trainable": true, "dtype": "float32"}, "name": "add_105", "inbound_nodes": [[["batch_normalization_464", 0, 0, {}], ["activation_311", 0, 0, {}]]]}, {"class_name": "BatchNormalization", "config": {"name": "batch_normalization_488", "trainable": true, "dtype": "float32", "axis": [3], "momentum": 0.99, "epsilon": 0.001, "center": true, "scale": false, "beta_initializer": {"class_name": "Zeros", "config": {}}, "gamma_initializer": {"class_name": "Ones", "config": {}}, "moving_mean_initializer": {"class_name": "Zeros", "config": {}}, "moving_variance_initializer": {"class_name": "Ones", "config": {}}, "beta_regularizer": null, "gamma_regularizer": null, "beta_constraint": null, "gamma_constraint": null}, "name": "batch_normalization_488", "inbound_nodes": [[["conv2d_328", 0, 0, {}]]]}, {"class_name": "Activation", "config": {"name": "activation_312", "trainable": true, "dtype": "float32", "activation": "relu"}, "name": "activation_312", "inbound_nodes": [[["add_105", 0, 0, {}]]]}, {"class_name": "Activation", "config": {"name": "activation_327", "trainable": true, "dtype": "float32", "activation": "relu"}, "name": "activation_327", "inbound_nodes": [[["batch_normalization_488", 0, 0, {}]]]}, {"class_name": "BatchNormalization", "config": {"name": "batch_normalization_466", "trainable": true, "dtype": "float32", "axis": [3], "momentum": 0.99, "epsilon": 0.001, "center": true, "scale": true, "beta_initializer": {"class_name": "Zeros", "config": {}}, "gamma_initializer": {"class_name": "Ones", "config": {}}, "moving_mean_initializer": {"class_name": "Zeros", "config": {}}, "moving_variance_initializer": {"class_name": "Ones", "config": {}}, "beta_regularizer": null, "gamma_regularizer": null, "beta_constraint": null, "gamma_constraint": null}, "name": "batch_normalization_466", "inbound_nodes": [[["activation_312", 0, 0, {}]]]}, {"class_name": "Conv2D", "config": {"name": "conv2d_325", "trainable": true, "dtype": "float32", "filters": 105, "kernel_size": [1, 1], "strides": [1, 1], "padding": "same", "data_format": "channels_last", "dilation_rate": [1, 1], "groups": 1, "activation": "linear", "use_bias": false, "kernel_initializer": {"class_name": "GlorotUniform", "config": {"seed": null}}, "bias_initializer": {"class_name": "Zeros", "config": {}}, "kernel_regularizer": null, "bias_regularizer": null, "activity_regularizer": null, "kernel_constraint": null, "bias_constraint": null}, "name": "conv2d_325", "inbound_nodes": [[["concatenate_70", 0, 0, {}]]]}, {"class_name": "Concatenate", "config": {"name": "concatenate_71", "trainable": true, "dtype": "float32", "axis": 3}, "name": "concatenate_71", "inbound_nodes": [[["activation_325", 0, 0, {}], ["activation_326", 0, 0, {}], ["activation_327", 0, 0, {}]]]}, {"class_name": "Conv2D", "config": {"name": "conv2d_314", "trainable": true, "dtype": "float32", "filters": 32, "kernel_size": [3, 3], "strides": [1, 1], "padding": "same", "data_format": "channels_last", "dilation_rate": [1, 1], "groups": 1, "activation": "linear", "use_bias": false, "kernel_initializer": {"class_name": "GlorotUniform", "config": {"seed": null}}, "bias_initializer": {"class_name": "Zeros", "config": {}}, "kernel_regularizer": null, "bias_regularizer": null, "activity_regularizer": null, "kernel_constraint": null, "bias_constraint": null}, "name": "conv2d_314", "inbound_nodes": [[["batch_normalization_466", 0, 0, {}]]]}, {"class_name": "BatchNormalization", "config": {"name": "batch_normalization_485", "trainable": true, "dtype": "float32", "axis": [3], "momentum": 0.99, "epsilon": 0.001, "center": true, "scale": false, "beta_initializer": {"class_name": "Zeros", "config": {}}, "gamma_initializer": {"class_name": "Ones", "config": {}}, "moving_mean_initializer": {"class_name": "Zeros", "config": {}}, "moving_variance_initializer": {"class_name": "Ones", "config": {}}, "beta_regularizer": null, "gamma_regularizer": null, "beta_constraint": null, "gamma_constraint": null}, "name": "batch_normalization_485", "inbound_nodes": [[["conv2d_325", 0, 0, {}]]]}, {"class_name": "BatchNormalization", "config": {"name": "batch_normalization_489", "trainable": true, "dtype": "float32", "axis": [3], "momentum": 0.99, "epsilon": 0.001, "center": true, "scale": true, "beta_initializer": {"class_name": "Zeros", "config": {}}, "gamma_initializer": {"class_name": "Ones", "config": {}}, "moving_mean_initializer": {"class_name": "Zeros", "config": {}}, "moving_variance_initializer": {"class_name": "Ones", "config": {}}, "beta_regularizer": null, "gamma_regularizer": null, "beta_constraint": null, "gamma_constraint": null}, "name": "batch_normalization_489", "inbound_nodes": [[["concatenate_71", 0, 0, {}]]]}, {"class_name": "Conv2D", "config": {"name": "conv2d_313", "trainable": true, "dtype": "float32", "filters": 32, "kernel_size": [1, 1], "strides": [1, 1], "padding": "same", "data_format": "channels_last", "dilation_rate": [1, 1], "groups": 1, "activation": "linear", "use_bias": false, "kernel_initializer": {"class_name": "GlorotUniform", "config": {"seed": null}}, "bias_initializer": {"class_name": "Zeros", "config": {}}, "kernel_regularizer": null, "bias_regularizer": null, "activity_regularizer": null, "kernel_constraint": null, "bias_constraint": null}, "name": "conv2d_313", "inbound_nodes": [[["batch_normalization_466", 0, 0, {}]]]}, {"class_name": "BatchNormalization", "config": {"name": "batch_normalization_468", "trainable": true, "dtype": "float32", "axis": [3], "momentum": 0.99, "epsilon": 0.001, "center": true, "scale": false, "beta_initializer": {"class_name": "Zeros", "config": {}}, "gamma_initializer": {"class_name": "Ones", "config": {}}, "moving_mean_initializer": {"class_name": "Zeros", "config": {}}, "moving_variance_initializer": {"class_name": "Ones", "config": {}}, "beta_regularizer": null, "gamma_regularizer": null, "beta_constraint": null, "gamma_constraint": null}, "name": "batch_normalization_468", "inbound_nodes": [[["conv2d_314", 0, 0, {}]]]}, {"class_name": "Add", "config": {"name": "add_110", "trainable": true, "dtype": "float32"}, "name": "add_110", "inbound_nodes": [[["batch_normalization_485", 0, 0, {}], ["batch_normalization_489", 0, 0, {}]]]}, {"class_name": "BatchNormalization", "config": {"name": "batch_normalization_467", "trainable": true, "dtype": "float32", "axis": [3], "momentum": 0.99, "epsilon": 0.001, "center": true, "scale": false, "beta_initializer": {"class_name": "Zeros", "config": {}}, "gamma_initializer": {"class_name": "Ones", "config": {}}, "moving_mean_initializer": {"class_name": "Zeros", "config": {}}, "moving_variance_initializer": {"class_name": "Ones", "config": {}}, "beta_regularizer": null, "gamma_regularizer": null, "beta_constraint": null, "gamma_constraint": null}, "name": "batch_normalization_467", "inbound_nodes": [[["conv2d_313", 0, 0, {}]]]}, {"class_name": "Activation", "config": {"name": "activation_313", "trainable": true, "dtype": "float32", "activation": "relu"}, "name": "activation_313", "inbound_nodes": [[["batch_normalization_468", 0, 0, {}]]]}, {"class_name": "Activation", "config": {"name": "activation_328", "trainable": true, "dtype": "float32", "activation": "relu"}, "name": "activation_328", "inbound_nodes": [[["add_110", 0, 0, {}]]]}, {"class_name": "Add", "config": {"name": "add_106", "trainable": true, "dtype": "float32"}, "name": "add_106", "inbound_nodes": [[["batch_normalization_467", 0, 0, {}], ["activation_313", 0, 0, {}]]]}, {"class_name": "BatchNormalization", "config": {"name": "batch_normalization_490", "trainable": true, "dtype": "float32", "axis": [3], "momentum": 0.99, "epsilon": 0.001, "center": true, "scale": true, "beta_initializer": {"class_name": "Zeros", "config": {}}, "gamma_initializer": {"class_name": "Ones", "config": {}}, "moving_mean_initializer": {"class_name": "Zeros", "config": {}}, "moving_variance_initializer": {"class_name": "Ones", "config": {}}, "beta_regularizer": null, "gamma_regularizer": null, "beta_constraint": null, "gamma_constraint": null}, "name": "batch_normalization_490", "inbound_nodes": [[["activation_328", 0, 0, {}]]]}, {"class_name": "Activation", "config": {"name": "activation_314", "trainable": true, "dtype": "float32", "activation": "relu"}, "name": "activation_314", "inbound_nodes": [[["add_106", 0, 0, {}]]]}, {"class_name": "Conv2D", "config": {"name": "conv2d_302", "trainable": true, "dtype": "float32", "filters": 16, "kernel_size": [3, 3], "strides": [1, 1], "padding": "same", "data_format": "channels_last", "dilation_rate": [1, 1], "groups": 1, "activation": "linear", "use_bias": false, "kernel_initializer": {"class_name": "GlorotUniform", "config": {"seed": null}}, "bias_initializer": {"class_name": "Zeros", "config": {}}, "kernel_regularizer": null, "bias_regularizer": null, "activity_regularizer": null, "kernel_constraint": null, "bias_constraint": null}, "name": "conv2d_302", "inbound_nodes": [[["batch_normalization_448", 0, 0, {}]]]}, {"class_name": "Conv2DTranspose", "config": {"name": "conv2d_transpose_21", "trainable": true, "dtype": "float32", "filters": 32, "kernel_size": [2, 2], "strides": [2, 2], "padding": "same", "data_format": "channels_last", "dilation_rate": [1, 1], "groups": 1, "activation": "linear", "use_bias": true, "kernel_initializer": {"class_name": "GlorotUniform", "config": {"seed": null}}, "bias_initializer": {"class_name": "Zeros", "config": {}}, "kernel_regularizer": null, "bias_regularizer": null, "activity_regularizer": null, "kernel_constraint": null, "bias_constraint": null, "output_padding": null}, "name": "conv2d_transpose_21", "inbound_nodes": [[["batch_normalization_490", 0, 0, {}]]]}, {"class_name": "BatchNormalization", "config": {"name": "batch_normalization_469", "trainable": true, "dtype": "float32", "axis": [3], "momentum": 0.99, "epsilon": 0.001, "center": true, "scale": true, "beta_initializer": {"class_name": "Zeros", "config": {}}, "gamma_initializer": {"class_name": "Ones", "config": {}}, "moving_mean_initializer": {"class_name": "Zeros", "config": {}}, "moving_variance_initializer": {"class_name": "Ones", "config": {}}, "beta_regularizer": null, "gamma_regularizer": null, "beta_constraint": null, "gamma_constraint": null}, "name": "batch_normalization_469", "inbound_nodes": [[["activation_314", 0, 0, {}]]]}, {"class_name": "Conv2D", "config": {"name": "conv2d_301", "trainable": true, "dtype": "float32", "filters": 16, "kernel_size": [1, 1], "strides": [1, 1], "padding": "same", "data_format": "channels_last", "dilation_rate": [1, 1], "groups": 1, "activation": "linear", "use_bias": false, "kernel_initializer": {"class_name": "GlorotUniform", "config": {"seed": null}}, "bias_initializer": {"class_name": "Zeros", "config": {}}, "kernel_regularizer": null, "bias_regularizer": null, "activity_regularizer": null, "kernel_constraint": null, "bias_constraint": null}, "name": "conv2d_301", "inbound_nodes": [[["batch_normalization_448", 0, 0, {}]]]}, {"class_name": "BatchNormalization", "config": {"name": "batch_normalization_450", "trainable": true, "dtype": "float32", "axis": [3], "momentum": 0.99, "epsilon": 0.001, "center": true, "scale": false, "beta_initializer": {"class_name": "Zeros", "config": {}}, "gamma_initializer": {"class_name": "Ones", "config": {}}, "moving_mean_initializer": {"class_name": "Zeros", "config": {}}, "moving_variance_initializer": {"class_name": "Ones", "config": {}}, "beta_regularizer": null, "gamma_regularizer": null, "beta_constraint": null, "gamma_constraint": null}, "name": "batch_normalization_450", "inbound_nodes": [[["conv2d_302", 0, 0, {}]]]}, {"class_name": "Concatenate", "config": {"name": "concatenate_72", "trainable": true, "dtype": "float32", "axis": 3}, "name": "concatenate_72", "inbound_nodes": [[["conv2d_transpose_21", 0, 0, {}], ["batch_normalization_469", 0, 0, {}]]]}, {"class_name": "BatchNormalization", "config": {"name": "batch_normalization_449", "trainable": true, "dtype": "float32", "axis": [3], "momentum": 0.99, "epsilon": 0.001, "center": true, "scale": false, "beta_initializer": {"class_name": "Zeros", "config": {}}, "gamma_initializer": {"class_name": "Ones", "config": {}}, "moving_mean_initializer": {"class_name": "Zeros", "config": {}}, "moving_variance_initializer": {"class_name": "Ones", "config": {}}, "beta_regularizer": null, "gamma_regularizer": null, "beta_constraint": null, "gamma_constraint": null}, "name": "batch_normalization_449", "inbound_nodes": [[["conv2d_301", 0, 0, {}]]]}, {"class_name": "Activation", "config": {"name": "activation_301", "trainable": true, "dtype": "float32", "activation": "relu"}, "name": "activation_301", "inbound_nodes": [[["batch_normalization_450", 0, 0, {}]]]}, {"class_name": "Conv2D", "config": {"name": "conv2d_330", "trainable": true, "dtype": "float32", "filters": 8, "kernel_size": [3, 3], "strides": [1, 1], "padding": "same", "data_format": "channels_last", "dilation_rate": [1, 1], "groups": 1, "activation": "linear", "use_bias": false, "kernel_initializer": {"class_name": "GlorotUniform", "config": {"seed": null}}, "bias_initializer": {"class_name": "Zeros", "config": {}}, "kernel_regularizer": null, "bias_regularizer": null, "activity_regularizer": null, "kernel_constraint": null, "bias_constraint": null}, "name": "conv2d_330", "inbound_nodes": [[["concatenate_72", 0, 0, {}]]]}, {"class_name": "Add", "config": {"name": "add_101", "trainable": true, "dtype": "float32"}, "name": "add_101", "inbound_nodes": [[["batch_normalization_449", 0, 0, {}], ["activation_301", 0, 0, {}]]]}, {"class_name": "BatchNormalization", "config": {"name": "batch_normalization_492", "trainable": true, "dtype": "float32", "axis": [3], "momentum": 0.99, "epsilon": 0.001, "center": true, "scale": false, "beta_initializer": {"class_name": "Zeros", "config": {}}, "gamma_initializer": {"class_name": "Ones", "config": {}}, "moving_mean_initializer": {"class_name": "Zeros", "config": {}}, "moving_variance_initializer": {"class_name": "Ones", "config": {}}, "beta_regularizer": null, "gamma_regularizer": null, "beta_constraint": null, "gamma_constraint": null}, "name": "batch_normalization_492", "inbound_nodes": [[["conv2d_330", 0, 0, {}]]]}, {"class_name": "Activation", "config": {"name": "activation_302", "trainable": true, "dtype": "float32", "activation": "relu"}, "name": "activation_302", "inbound_nodes": [[["add_101", 0, 0, {}]]]}, {"class_name": "Activation", "config": {"name": "activation_329", "trainable": true, "dtype": "float32", "activation": "relu"}, "name": "activation_329", "inbound_nodes": [[["batch_normalization_492", 0, 0, {}]]]}, {"class_name": "BatchNormalization", "config": {"name": "batch_normalization_451", "trainable": true, "dtype": "float32", "axis": [3], "momentum": 0.99, "epsilon": 0.001, "center": true, "scale": true, "beta_initializer": {"class_name": "Zeros", "config": {}}, "gamma_initializer": {"class_name": "Ones", "config": {}}, "moving_mean_initializer": {"class_name": "Zeros", "config": {}}, "moving_variance_initializer": {"class_name": "Ones", "config": {}}, "beta_regularizer": null, "gamma_regularizer": null, "beta_constraint": null, "gamma_constraint": null}, "name": "batch_normalization_451", "inbound_nodes": [[["activation_302", 0, 0, {}]]]}, {"class_name": "Conv2D", "config": {"name": "conv2d_331", "trainable": true, "dtype": "float32", "filters": 17, "kernel_size": [3, 3], "strides": [1, 1], "padding": "same", "data_format": "channels_last", "dilation_rate": [1, 1], "groups": 1, "activation": "linear", "use_bias": false, "kernel_initializer": {"class_name": "GlorotUniform", "config": {"seed": null}}, "bias_initializer": {"class_name": "Zeros", "config": {}}, "kernel_regularizer": null, "bias_regularizer": null, "activity_regularizer": null, "kernel_constraint": null, "bias_constraint": null}, "name": "conv2d_331", "inbound_nodes": [[["activation_329", 0, 0, {}]]]}, {"class_name": "Conv2D", "config": {"name": "conv2d_304", "trainable": true, "dtype": "float32", "filters": 16, "kernel_size": [3, 3], "strides": [1, 1], "padding": "same", "data_format": "channels_last", "dilation_rate": [1, 1], "groups": 1, "activation": "linear", "use_bias": false, "kernel_initializer": {"class_name": "GlorotUniform", "config": {"seed": null}}, "bias_initializer": {"class_name": "Zeros", "config": {}}, "kernel_regularizer": null, "bias_regularizer": null, "activity_regularizer": null, "kernel_constraint": null, "bias_constraint": null}, "name": "conv2d_304", "inbound_nodes": [[["batch_normalization_451", 0, 0, {}]]]}, {"class_name": "BatchNormalization", "config": {"name": "batch_normalization_493", "trainable": true, "dtype": "float32", "axis": [3], "momentum": 0.99, "epsilon": 0.001, "center": true, "scale": false, "beta_initializer": {"class_name": "Zeros", "config": {}}, "gamma_initializer": {"class_name": "Ones", "config": {}}, "moving_mean_initializer": {"class_name": "Zeros", "config": {}}, "moving_variance_initializer": {"class_name": "Ones", "config": {}}, "beta_regularizer": null, "gamma_regularizer": null, "beta_constraint": null, "gamma_constraint": null}, "name": "batch_normalization_493", "inbound_nodes": [[["conv2d_331", 0, 0, {}]]]}, {"class_name": "Conv2D", "config": {"name": "conv2d_303", "trainable": true, "dtype": "float32", "filters": 16, "kernel_size": [1, 1], "strides": [1, 1], "padding": "same", "data_format": "channels_last", "dilation_rate": [1, 1], "groups": 1, "activation": "linear", "use_bias": false, "kernel_initializer": {"class_name": "GlorotUniform", "config": {"seed": null}}, "bias_initializer": {"class_name": "Zeros", "config": {}}, "kernel_regularizer": null, "bias_regularizer": null, "activity_regularizer": null, "kernel_constraint": null, "bias_constraint": null}, "name": "conv2d_303", "inbound_nodes": [[["batch_normalization_451", 0, 0, {}]]]}, {"class_name": "BatchNormalization", "config": {"name": "batch_normalization_453", "trainable": true, "dtype": "float32", "axis": [3], "momentum": 0.99, "epsilon": 0.001, "center": true, "scale": false, "beta_initializer": {"class_name": "Zeros", "config": {}}, "gamma_initializer": {"class_name": "Ones", "config": {}}, "moving_mean_initializer": {"class_name": "Zeros", "config": {}}, "moving_variance_initializer": {"class_name": "Ones", "config": {}}, "beta_regularizer": null, "gamma_regularizer": null, "beta_constraint": null, "gamma_constraint": null}, "name": "batch_normalization_453", "inbound_nodes": [[["conv2d_304", 0, 0, {}]]]}, {"class_name": "Activation", "config": {"name": "activation_330", "trainable": true, "dtype": "float32", "activation": "relu"}, "name": "activation_330", "inbound_nodes": [[["batch_normalization_493", 0, 0, {}]]]}, {"class_name": "BatchNormalization", "config": {"name": "batch_normalization_452", "trainable": true, "dtype": "float32", "axis": [3], "momentum": 0.99, "epsilon": 0.001, "center": true, "scale": false, "beta_initializer": {"class_name": "Zeros", "config": {}}, "gamma_initializer": {"class_name": "Ones", "config": {}}, "moving_mean_initializer": {"class_name": "Zeros", "config": {}}, "moving_variance_initializer": {"class_name": "Ones", "config": {}}, "beta_regularizer": null, "gamma_regularizer": null, "beta_constraint": null, "gamma_constraint": null}, "name": "batch_normalization_452", "inbound_nodes": [[["conv2d_303", 0, 0, {}]]]}, {"class_name": "Activation", "config": {"name": "activation_303", "trainable": true, "dtype": "float32", "activation": "relu"}, "name": "activation_303", "inbound_nodes": [[["batch_normalization_453", 0, 0, {}]]]}, {"class_name": "Conv2D", "config": {"name": "conv2d_332", "trainable": true, "dtype": "float32", "filters": 26, "kernel_size": [3, 3], "strides": [1, 1], "padding": "same", "data_format": "channels_last", "dilation_rate": [1, 1], "groups": 1, "activation": "linear", "use_bias": false, "kernel_initializer": {"class_name": "GlorotUniform", "config": {"seed": null}}, "bias_initializer": {"class_name": "Zeros", "config": {}}, "kernel_regularizer": null, "bias_regularizer": null, "activity_regularizer": null, "kernel_constraint": null, "bias_constraint": null}, "name": "conv2d_332", "inbound_nodes": [[["activation_330", 0, 0, {}]]]}, {"class_name": "Add", "config": {"name": "add_102", "trainable": true, "dtype": "float32"}, "name": "add_102", "inbound_nodes": [[["batch_normalization_452", 0, 0, {}], ["activation_303", 0, 0, {}]]]}, {"class_name": "BatchNormalization", "config": {"name": "batch_normalization_494", "trainable": true, "dtype": "float32", "axis": [3], "momentum": 0.99, "epsilon": 0.001, "center": true, "scale": false, "beta_initializer": {"class_name": "Zeros", "config": {}}, "gamma_initializer": {"class_name": "Ones", "config": {}}, "moving_mean_initializer": {"class_name": "Zeros", "config": {}}, "moving_variance_initializer": {"class_name": "Ones", "config": {}}, "beta_regularizer": null, "gamma_regularizer": null, "beta_constraint": null, "gamma_constraint": null}, "name": "batch_normalization_494", "inbound_nodes": [[["conv2d_332", 0, 0, {}]]]}, {"class_name": "Activation", "config": {"name": "activation_304", "trainable": true, "dtype": "float32", "activation": "relu"}, "name": "activation_304", "inbound_nodes": [[["add_102", 0, 0, {}]]]}, {"class_name": "Conv2D", "config": {"name": "conv2d_290", "trainable": true, "dtype": "float32", "filters": 8, "kernel_size": [3, 3], "strides": [1, 1], "padding": "same", "data_format": "channels_last", "dilation_rate": [1, 1], "groups": 1, "activation": "linear", "use_bias": false, "kernel_initializer": {"class_name": "GlorotUniform", "config": {"seed": null}}, "bias_initializer": {"class_name": "Zeros", "config": {}}, "kernel_regularizer": null, "bias_regularizer": null, "activity_regularizer": null, "kernel_constraint": null, "bias_constraint": null}, "name": "conv2d_290", "inbound_nodes": [[["batch_normalization_430", 0, 0, {}]]]}, {"class_name": "Activation", "config": {"name": "activation_331", "trainable": true, "dtype": "float32", "activation": "relu"}, "name": "activation_331", "inbound_nodes": [[["batch_normalization_494", 0, 0, {}]]]}, {"class_name": "BatchNormalization", "config": {"name": "batch_normalization_454", "trainable": true, "dtype": "float32", "axis": [3], "momentum": 0.99, "epsilon": 0.001, "center": true, "scale": true, "beta_initializer": {"class_name": "Zeros", "config": {}}, "gamma_initializer": {"class_name": "Ones", "config": {}}, "moving_mean_initializer": {"class_name": "Zeros", "config": {}}, "moving_variance_initializer": {"class_name": "Ones", "config": {}}, "beta_regularizer": null, "gamma_regularizer": null, "beta_constraint": null, "gamma_constraint": null}, "name": "batch_normalization_454", "inbound_nodes": [[["activation_304", 0, 0, {}]]]}, {"class_name": "Conv2D", "config": {"name": "conv2d_289", "trainable": true, "dtype": "float32", "filters": 8, "kernel_size": [1, 1], "strides": [1, 1], "padding": "same", "data_format": "channels_last", "dilation_rate": [1, 1], "groups": 1, "activation": "linear", "use_bias": false, "kernel_initializer": {"class_name": "GlorotUniform", "config": {"seed": null}}, "bias_initializer": {"class_name": "Zeros", "config": {}}, "kernel_regularizer": null, "bias_regularizer": null, "activity_regularizer": null, "kernel_constraint": null, "bias_constraint": null}, "name": "conv2d_289", "inbound_nodes": [[["batch_normalization_430", 0, 0, {}]]]}, {"class_name": "BatchNormalization", "config": {"name": "batch_normalization_432", "trainable": true, "dtype": "float32", "axis": [3], "momentum": 0.99, "epsilon": 0.001, "center": true, "scale": false, "beta_initializer": {"class_name": "Zeros", "config": {}}, "gamma_initializer": {"class_name": "Ones", "config": {}}, "moving_mean_initializer": {"class_name": "Zeros", "config": {}}, "moving_variance_initializer": {"class_name": "Ones", "config": {}}, "beta_regularizer": null, "gamma_regularizer": null, "beta_constraint": null, "gamma_constraint": null}, "name": "batch_normalization_432", "inbound_nodes": [[["conv2d_290", 0, 0, {}]]]}, {"class_name": "Conv2D", "config": {"name": "conv2d_329", "trainable": true, "dtype": "float32", "filters": 51, "kernel_size": [1, 1], "strides": [1, 1], "padding": "same", "data_format": "channels_last", "dilation_rate": [1, 1], "groups": 1, "activation": "linear", "use_bias": false, "kernel_initializer": {"class_name": "GlorotUniform", "config": {"seed": null}}, "bias_initializer": {"class_name": "Zeros", "config": {}}, "kernel_regularizer": null, "bias_regularizer": null, "activity_regularizer": null, "kernel_constraint": null, "bias_constraint": null}, "name": "conv2d_329", "inbound_nodes": [[["concatenate_72", 0, 0, {}]]]}, {"class_name": "Concatenate", "config": {"name": "concatenate_73", "trainable": true, "dtype": "float32", "axis": 3}, "name": "concatenate_73", "inbound_nodes": [[["activation_329", 0, 0, {}], ["activation_330", 0, 0, {}], ["activation_331", 0, 0, {}]]]}, {"class_name": "Conv2D", "config": {"name": "conv2d_306", "trainable": true, "dtype": "float32", "filters": 16, "kernel_size": [3, 3], "strides": [1, 1], "padding": "same", "data_format": "channels_last", "dilation_rate": [1, 1], "groups": 1, "activation": "linear", "use_bias": false, "kernel_initializer": {"class_name": "GlorotUniform", "config": {"seed": null}}, "bias_initializer": {"class_name": "Zeros", "config": {}}, "kernel_regularizer": null, "bias_regularizer": null, "activity_regularizer": null, "kernel_constraint": null, "bias_constraint": null}, "name": "conv2d_306", "inbound_nodes": [[["batch_normalization_454", 0, 0, {}]]]}, {"class_name": "BatchNormalization", "config": {"name": "batch_normalization_431", "trainable": true, "dtype": "float32", "axis": [3], "momentum": 0.99, "epsilon": 0.001, "center": true, "scale": false, "beta_initializer": {"class_name": "Zeros", "config": {}}, "gamma_initializer": {"class_name": "Ones", "config": {}}, "moving_mean_initializer": {"class_name": "Zeros", "config": {}}, "moving_variance_initializer": {"class_name": "Ones", "config": {}}, "beta_regularizer": null, "gamma_regularizer": null, "beta_constraint": null, "gamma_constraint": null}, "name": "batch_normalization_431", "inbound_nodes": [[["conv2d_289", 0, 0, {}]]]}, {"class_name": "Activation", "config": {"name": "activation_289", "trainable": true, "dtype": "float32", "activation": "relu"}, "name": "activation_289", "inbound_nodes": [[["batch_normalization_432", 0, 0, {}]]]}, {"class_name": "BatchNormalization", "config": {"name": "batch_normalization_491", "trainable": true, "dtype": "float32", "axis": [3], "momentum": 0.99, "epsilon": 0.001, "center": true, "scale": false, "beta_initializer": {"class_name": "Zeros", "config": {}}, "gamma_initializer": {"class_name": "Ones", "config": {}}, "moving_mean_initializer": {"class_name": "Zeros", "config": {}}, "moving_variance_initializer": {"class_name": "Ones", "config": {}}, "beta_regularizer": null, "gamma_regularizer": null, "beta_constraint": null, "gamma_constraint": null}, "name": "batch_normalization_491", "inbound_nodes": [[["conv2d_329", 0, 0, {}]]]}, {"class_name": "BatchNormalization", "config": {"name": "batch_normalization_495", "trainable": true, "dtype": "float32", "axis": [3], "momentum": 0.99, "epsilon": 0.001, "center": true, "scale": true, "beta_initializer": {"class_name": "Zeros", "config": {}}, "gamma_initializer": {"class_name": "Ones", "config": {}}, "moving_mean_initializer": {"class_name": "Zeros", "config": {}}, "moving_variance_initializer": {"class_name": "Ones", "config": {}}, "beta_regularizer": null, "gamma_regularizer": null, "beta_constraint": null, "gamma_constraint": null}, "name": "batch_normalization_495", "inbound_nodes": [[["concatenate_73", 0, 0, {}]]]}, {"class_name": "Conv2D", "config": {"name": "conv2d_305", "trainable": true, "dtype": "float32", "filters": 16, "kernel_size": [1, 1], "strides": [1, 1], "padding": "same", "data_format": "channels_last", "dilation_rate": [1, 1], "groups": 1, "activation": "linear", "use_bias": false, "kernel_initializer": {"class_name": "GlorotUniform", "config": {"seed": null}}, "bias_initializer": {"class_name": "Zeros", "config": {}}, "kernel_regularizer": null, "bias_regularizer": null, "activity_regularizer": null, "kernel_constraint": null, "bias_constraint": null}, "name": "conv2d_305", "inbound_nodes": [[["batch_normalization_454", 0, 0, {}]]]}, {"class_name": "BatchNormalization", "config": {"name": "batch_normalization_456", "trainable": true, "dtype": "float32", "axis": [3], "momentum": 0.99, "epsilon": 0.001, "center": true, "scale": false, "beta_initializer": {"class_name": "Zeros", "config": {}}, "gamma_initializer": {"class_name": "Ones", "config": {}}, "moving_mean_initializer": {"class_name": "Zeros", "config": {}}, "moving_variance_initializer": {"class_name": "Ones", "config": {}}, "beta_regularizer": null, "gamma_regularizer": null, "beta_constraint": null, "gamma_constraint": null}, "name": "batch_normalization_456", "inbound_nodes": [[["conv2d_306", 0, 0, {}]]]}, {"class_name": "Add", "config": {"name": "add_96", "trainable": true, "dtype": "float32"}, "name": "add_96", "inbound_nodes": [[["batch_normalization_431", 0, 0, {}], ["activation_289", 0, 0, {}]]]}, {"class_name": "Add", "config": {"name": "add_111", "trainable": true, "dtype": "float32"}, "name": "add_111", "inbound_nodes": [[["batch_normalization_491", 0, 0, {}], ["batch_normalization_495", 0, 0, {}]]]}, {"class_name": "BatchNormalization", "config": {"name": "batch_normalization_455", "trainable": true, "dtype": "float32", "axis": [3], "momentum": 0.99, "epsilon": 0.001, "center": true, "scale": false, "beta_initializer": {"class_name": "Zeros", "config": {}}, "gamma_initializer": {"class_name": "Ones", "config": {}}, "moving_mean_initializer": {"class_name": "Zeros", "config": {}}, "moving_variance_initializer": {"class_name": "Ones", "config": {}}, "beta_regularizer": null, "gamma_regularizer": null, "beta_constraint": null, "gamma_constraint": null}, "name": "batch_normalization_455", "inbound_nodes": [[["conv2d_305", 0, 0, {}]]]}, {"class_name": "Activation", "config": {"name": "activation_305", "trainable": true, "dtype": "float32", "activation": "relu"}, "name": "activation_305", "inbound_nodes": [[["batch_normalization_456", 0, 0, {}]]]}, {"class_name": "Activation", "config": {"name": "activation_290", "trainable": true, "dtype": "float32", "activation": "relu"}, "name": "activation_290", "inbound_nodes": [[["add_96", 0, 0, {}]]]}, {"class_name": "Activation", "config": {"name": "activation_332", "trainable": true, "dtype": "float32", "activation": "relu"}, "name": "activation_332", "inbound_nodes": [[["add_111", 0, 0, {}]]]}, {"class_name": "Add", "config": {"name": "add_103", "trainable": true, "dtype": "float32"}, "name": "add_103", "inbound_nodes": [[["batch_normalization_455", 0, 0, {}], ["activation_305", 0, 0, {}]]]}, {"class_name": "BatchNormalization", "config": {"name": "batch_normalization_433", "trainable": true, "dtype": "float32", "axis": [3], "momentum": 0.99, "epsilon": 0.001, "center": true, "scale": true, "beta_initializer": {"class_name": "Zeros", "config": {}}, "gamma_initializer": {"class_name": "Ones", "config": {}}, "moving_mean_initializer": {"class_name": "Zeros", "config": {}}, "moving_variance_initializer": {"class_name": "Ones", "config": {}}, "beta_regularizer": null, "gamma_regularizer": null, "beta_constraint": null, "gamma_constraint": null}, "name": "batch_normalization_433", "inbound_nodes": [[["activation_290", 0, 0, {}]]]}, {"class_name": "BatchNormalization", "config": {"name": "batch_normalization_496", "trainable": true, "dtype": "float32", "axis": [3], "momentum": 0.99, "epsilon": 0.001, "center": true, "scale": true, "beta_initializer": {"class_name": "Zeros", "config": {}}, "gamma_initializer": {"class_name": "Ones", "config": {}}, "moving_mean_initializer": {"class_name": "Zeros", "config": {}}, "moving_variance_initializer": {"class_name": "Ones", "config": {}}, "beta_regularizer": null, "gamma_regularizer": null, "beta_constraint": null, "gamma_constraint": null}, "name": "batch_normalization_496", "inbound_nodes": [[["activation_332", 0, 0, {}]]]}, {"class_name": "Activation", "config": {"name": "activation_306", "trainable": true, "dtype": "float32", "activation": "relu"}, "name": "activation_306", "inbound_nodes": [[["add_103", 0, 0, {}]]]}, {"class_name": "Conv2D", "config": {"name": "conv2d_292", "trainable": true, "dtype": "float32", "filters": 8, "kernel_size": [3, 3], "strides": [1, 1], "padding": "same", "data_format": "channels_last", "dilation_rate": [1, 1], "groups": 1, "activation": "linear", "use_bias": false, "kernel_initializer": {"class_name": "GlorotUniform", "config": {"seed": null}}, "bias_initializer": {"class_name": "Zeros", "config": {}}, "kernel_regularizer": null, "bias_regularizer": null, "activity_regularizer": null, "kernel_constraint": null, "bias_constraint": null}, "name": "conv2d_292", "inbound_nodes": [[["batch_normalization_433", 0, 0, {}]]]}, {"class_name": "Conv2DTranspose", "config": {"name": "conv2d_transpose_22", "trainable": true, "dtype": "float32", "filters": 16, "kernel_size": [2, 2], "strides": [2, 2], "padding": "same", "data_format": "channels_last", "dilation_rate": [1, 1], "groups": 1, "activation": "linear", "use_bias": true, "kernel_initializer": {"class_name": "GlorotUniform", "config": {"seed": null}}, "bias_initializer": {"class_name": "Zeros", "config": {}}, "kernel_regularizer": null, "bias_regularizer": null, "activity_regularizer": null, "kernel_constraint": null, "bias_constraint": null, "output_padding": null}, "name": "conv2d_transpose_22", "inbound_nodes": [[["batch_normalization_496", 0, 0, {}]]]}, {"class_name": "BatchNormalization", "config": {"name": "batch_normalization_457", "trainable": true, "dtype": "float32", "axis": [3], "momentum": 0.99, "epsilon": 0.001, "center": true, "scale": true, "beta_initializer": {"class_name": "Zeros", "config": {}}, "gamma_initializer": {"class_name": "Ones", "config": {}}, "moving_mean_initializer": {"class_name": "Zeros", "config": {}}, "moving_variance_initializer": {"class_name": "Ones", "config": {}}, "beta_regularizer": null, "gamma_regularizer": null, "beta_constraint": null, "gamma_constraint": null}, "name": "batch_normalization_457", "inbound_nodes": [[["activation_306", 0, 0, {}]]]}, {"class_name": "Conv2D", "config": {"name": "conv2d_291", "trainable": true, "dtype": "float32", "filters": 8, "kernel_size": [1, 1], "strides": [1, 1], "padding": "same", "data_format": "channels_last", "dilation_rate": [1, 1], "groups": 1, "activation": "linear", "use_bias": false, "kernel_initializer": {"class_name": "GlorotUniform", "config": {"seed": null}}, "bias_initializer": {"class_name": "Zeros", "config": {}}, "kernel_regularizer": null, "bias_regularizer": null, "activity_regularizer": null, "kernel_constraint": null, "bias_constraint": null}, "name": "conv2d_291", "inbound_nodes": [[["batch_normalization_433", 0, 0, {}]]]}, {"class_name": "BatchNormalization", "config": {"name": "batch_normalization_435", "trainable": true, "dtype": "float32", "axis": [3], "momentum": 0.99, "epsilon": 0.001, "center": true, "scale": false, "beta_initializer": {"class_name": "Zeros", "config": {}}, "gamma_initializer": {"class_name": "Ones", "config": {}}, "moving_mean_initializer": {"class_name": "Zeros", "config": {}}, "moving_variance_initializer": {"class_name": "Ones", "config": {}}, "beta_regularizer": null, "gamma_regularizer": null, "beta_constraint": null, "gamma_constraint": null}, "name": "batch_normalization_435", "inbound_nodes": [[["conv2d_292", 0, 0, {}]]]}, {"class_name": "Concatenate", "config": {"name": "concatenate_74", "trainable": true, "dtype": "float32", "axis": 3}, "name": "concatenate_74", "inbound_nodes": [[["conv2d_transpose_22", 0, 0, {}], ["batch_normalization_457", 0, 0, {}]]]}, {"class_name": "BatchNormalization", "config": {"name": "batch_normalization_434", "trainable": true, "dtype": "float32", "axis": [3], "momentum": 0.99, "epsilon": 0.001, "center": true, "scale": false, "beta_initializer": {"class_name": "Zeros", "config": {}}, "gamma_initializer": {"class_name": "Ones", "config": {}}, "moving_mean_initializer": {"class_name": "Zeros", "config": {}}, "moving_variance_initializer": {"class_name": "Ones", "config": {}}, "beta_regularizer": null, "gamma_regularizer": null, "beta_constraint": null, "gamma_constraint": null}, "name": "batch_normalization_434", "inbound_nodes": [[["conv2d_291", 0, 0, {}]]]}, {"class_name": "Activation", "config": {"name": "activation_291", "trainable": true, "dtype": "float32", "activation": "relu"}, "name": "activation_291", "inbound_nodes": [[["batch_normalization_435", 0, 0, {}]]]}, {"class_name": "Conv2D", "config": {"name": "conv2d_334", "trainable": true, "dtype": "float32", "filters": 4, "kernel_size": [3, 3], "strides": [1, 1], "padding": "same", "data_format": "channels_last", "dilation_rate": [1, 1], "groups": 1, "activation": "linear", "use_bias": false, "kernel_initializer": {"class_name": "GlorotUniform", "config": {"seed": null}}, "bias_initializer": {"class_name": "Zeros", "config": {}}, "kernel_regularizer": null, "bias_regularizer": null, "activity_regularizer": null, "kernel_constraint": null, "bias_constraint": null}, "name": "conv2d_334", "inbound_nodes": [[["concatenate_74", 0, 0, {}]]]}, {"class_name": "Add", "config": {"name": "add_97", "trainable": true, "dtype": "float32"}, "name": "add_97", "inbound_nodes": [[["batch_normalization_434", 0, 0, {}], ["activation_291", 0, 0, {}]]]}, {"class_name": "BatchNormalization", "config": {"name": "batch_normalization_498", "trainable": true, "dtype": "float32", "axis": [3], "momentum": 0.99, "epsilon": 0.001, "center": true, "scale": false, "beta_initializer": {"class_name": "Zeros", "config": {}}, "gamma_initializer": {"class_name": "Ones", "config": {}}, "moving_mean_initializer": {"class_name": "Zeros", "config": {}}, "moving_variance_initializer": {"class_name": "Ones", "config": {}}, "beta_regularizer": null, "gamma_regularizer": null, "beta_constraint": null, "gamma_constraint": null}, "name": "batch_normalization_498", "inbound_nodes": [[["conv2d_334", 0, 0, {}]]]}, {"class_name": "Activation", "config": {"name": "activation_292", "trainable": true, "dtype": "float32", "activation": "relu"}, "name": "activation_292", "inbound_nodes": [[["add_97", 0, 0, {}]]]}, {"class_name": "Activation", "config": {"name": "activation_333", "trainable": true, "dtype": "float32", "activation": "relu"}, "name": "activation_333", "inbound_nodes": [[["batch_normalization_498", 0, 0, {}]]]}, {"class_name": "BatchNormalization", "config": {"name": "batch_normalization_436", "trainable": true, "dtype": "float32", "axis": [3], "momentum": 0.99, "epsilon": 0.001, "center": true, "scale": true, "beta_initializer": {"class_name": "Zeros", "config": {}}, "gamma_initializer": {"class_name": "Ones", "config": {}}, "moving_mean_initializer": {"class_name": "Zeros", "config": {}}, "moving_variance_initializer": {"class_name": "Ones", "config": {}}, "beta_regularizer": null, "gamma_regularizer": null, "beta_constraint": null, "gamma_constraint": null}, "name": "batch_normalization_436", "inbound_nodes": [[["activation_292", 0, 0, {}]]]}, {"class_name": "Conv2D", "config": {"name": "conv2d_335", "trainable": true, "dtype": "float32", "filters": 8, "kernel_size": [3, 3], "strides": [1, 1], "padding": "same", "data_format": "channels_last", "dilation_rate": [1, 1], "groups": 1, "activation": "linear", "use_bias": false, "kernel_initializer": {"class_name": "GlorotUniform", "config": {"seed": null}}, "bias_initializer": {"class_name": "Zeros", "config": {}}, "kernel_regularizer": null, "bias_regularizer": null, "activity_regularizer": null, "kernel_constraint": null, "bias_constraint": null}, "name": "conv2d_335", "inbound_nodes": [[["activation_333", 0, 0, {}]]]}, {"class_name": "Conv2D", "config": {"name": "conv2d_294", "trainable": true, "dtype": "float32", "filters": 8, "kernel_size": [3, 3], "strides": [1, 1], "padding": "same", "data_format": "channels_last", "dilation_rate": [1, 1], "groups": 1, "activation": "linear", "use_bias": false, "kernel_initializer": {"class_name": "GlorotUniform", "config": {"seed": null}}, "bias_initializer": {"class_name": "Zeros", "config": {}}, "kernel_regularizer": null, "bias_regularizer": null, "activity_regularizer": null, "kernel_constraint": null, "bias_constraint": null}, "name": "conv2d_294", "inbound_nodes": [[["batch_normalization_436", 0, 0, {}]]]}, {"class_name": "BatchNormalization", "config": {"name": "batch_normalization_499", "trainable": true, "dtype": "float32", "axis": [3], "momentum": 0.99, "epsilon": 0.001, "center": true, "scale": false, "beta_initializer": {"class_name": "Zeros", "config": {}}, "gamma_initializer": {"class_name": "Ones", "config": {}}, "moving_mean_initializer": {"class_name": "Zeros", "config": {}}, "moving_variance_initializer": {"class_name": "Ones", "config": {}}, "beta_regularizer": null, "gamma_regularizer": null, "beta_constraint": null, "gamma_constraint": null}, "name": "batch_normalization_499", "inbound_nodes": [[["conv2d_335", 0, 0, {}]]]}, {"class_name": "Conv2D", "config": {"name": "conv2d_293", "trainable": true, "dtype": "float32", "filters": 8, "kernel_size": [1, 1], "strides": [1, 1], "padding": "same", "data_format": "channels_last", "dilation_rate": [1, 1], "groups": 1, "activation": "linear", "use_bias": false, "kernel_initializer": {"class_name": "GlorotUniform", "config": {"seed": null}}, "bias_initializer": {"class_name": "Zeros", "config": {}}, "kernel_regularizer": null, "bias_regularizer": null, "activity_regularizer": null, "kernel_constraint": null, "bias_constraint": null}, "name": "conv2d_293", "inbound_nodes": [[["batch_normalization_436", 0, 0, {}]]]}, {"class_name": "BatchNormalization", "config": {"name": "batch_normalization_438", "trainable": true, "dtype": "float32", "axis": [3], "momentum": 0.99, "epsilon": 0.001, "center": true, "scale": false, "beta_initializer": {"class_name": "Zeros", "config": {}}, "gamma_initializer": {"class_name": "Ones", "config": {}}, "moving_mean_initializer": {"class_name": "Zeros", "config": {}}, "moving_variance_initializer": {"class_name": "Ones", "config": {}}, "beta_regularizer": null, "gamma_regularizer": null, "beta_constraint": null, "gamma_constraint": null}, "name": "batch_normalization_438", "inbound_nodes": [[["conv2d_294", 0, 0, {}]]]}, {"class_name": "Activation", "config": {"name": "activation_334", "trainable": true, "dtype": "float32", "activation": "relu"}, "name": "activation_334", "inbound_nodes": [[["batch_normalization_499", 0, 0, {}]]]}, {"class_name": "BatchNormalization", "config": {"name": "batch_normalization_437", "trainable": true, "dtype": "float32", "axis": [3], "momentum": 0.99, "epsilon": 0.001, "center": true, "scale": false, "beta_initializer": {"class_name": "Zeros", "config": {}}, "gamma_initializer": {"class_name": "Ones", "config": {}}, "moving_mean_initializer": {"class_name": "Zeros", "config": {}}, "moving_variance_initializer": {"class_name": "Ones", "config": {}}, "beta_regularizer": null, "gamma_regularizer": null, "beta_constraint": null, "gamma_constraint": null}, "name": "batch_normalization_437", "inbound_nodes": [[["conv2d_293", 0, 0, {}]]]}, {"class_name": "Activation", "config": {"name": "activation_293", "trainable": true, "dtype": "float32", "activation": "relu"}, "name": "activation_293", "inbound_nodes": [[["batch_normalization_438", 0, 0, {}]]]}, {"class_name": "Conv2D", "config": {"name": "conv2d_336", "trainable": true, "dtype": "float32", "filters": 13, "kernel_size": [3, 3], "strides": [1, 1], "padding": "same", "data_format": "channels_last", "dilation_rate": [1, 1], "groups": 1, "activation": "linear", "use_bias": false, "kernel_initializer": {"class_name": "GlorotUniform", "config": {"seed": null}}, "bias_initializer": {"class_name": "Zeros", "config": {}}, "kernel_regularizer": null, "bias_regularizer": null, "activity_regularizer": null, "kernel_constraint": null, "bias_constraint": null}, "name": "conv2d_336", "inbound_nodes": [[["activation_334", 0, 0, {}]]]}, {"class_name": "Add", "config": {"name": "add_98", "trainable": true, "dtype": "float32"}, "name": "add_98", "inbound_nodes": [[["batch_normalization_437", 0, 0, {}], ["activation_293", 0, 0, {}]]]}, {"class_name": "BatchNormalization", "config": {"name": "batch_normalization_500", "trainable": true, "dtype": "float32", "axis": [3], "momentum": 0.99, "epsilon": 0.001, "center": true, "scale": false, "beta_initializer": {"class_name": "Zeros", "config": {}}, "gamma_initializer": {"class_name": "Ones", "config": {}}, "moving_mean_initializer": {"class_name": "Zeros", "config": {}}, "moving_variance_initializer": {"class_name": "Ones", "config": {}}, "beta_regularizer": null, "gamma_regularizer": null, "beta_constraint": null, "gamma_constraint": null}, "name": "batch_normalization_500", "inbound_nodes": [[["conv2d_336", 0, 0, {}]]]}, {"class_name": "Activation", "config": {"name": "activation_294", "trainable": true, "dtype": "float32", "activation": "relu"}, "name": "activation_294", "inbound_nodes": [[["add_98", 0, 0, {}]]]}, {"class_name": "Activation", "config": {"name": "activation_335", "trainable": true, "dtype": "float32", "activation": "relu"}, "name": "activation_335", "inbound_nodes": [[["batch_normalization_500", 0, 0, {}]]]}, {"class_name": "BatchNormalization", "config": {"name": "batch_normalization_439", "trainable": true, "dtype": "float32", "axis": [3], "momentum": 0.99, "epsilon": 0.001, "center": true, "scale": true, "beta_initializer": {"class_name": "Zeros", "config": {}}, "gamma_initializer": {"class_name": "Ones", "config": {}}, "moving_mean_initializer": {"class_name": "Zeros", "config": {}}, "moving_variance_initializer": {"class_name": "Ones", "config": {}}, "beta_regularizer": null, "gamma_regularizer": null, "beta_constraint": null, "gamma_constraint": null}, "name": "batch_normalization_439", "inbound_nodes": [[["activation_294", 0, 0, {}]]]}, {"class_name": "Conv2D", "config": {"name": "conv2d_333", "trainable": true, "dtype": "float32", "filters": 25, "kernel_size": [1, 1], "strides": [1, 1], "padding": "same", "data_format": "channels_last", "dilation_rate": [1, 1], "groups": 1, "activation": "linear", "use_bias": false, "kernel_initializer": {"class_name": "GlorotUniform", "config": {"seed": null}}, "bias_initializer": {"class_name": "Zeros", "config": {}}, "kernel_regularizer": null, "bias_regularizer": null, "activity_regularizer": null, "kernel_constraint": null, "bias_constraint": null}, "name": "conv2d_333", "inbound_nodes": [[["concatenate_74", 0, 0, {}]]]}, {"class_name": "Concatenate", "config": {"name": "concatenate_75", "trainable": true, "dtype": "float32", "axis": 3}, "name": "concatenate_75", "inbound_nodes": [[["activation_333", 0, 0, {}], ["activation_334", 0, 0, {}], ["activation_335", 0, 0, {}]]]}, {"class_name": "Conv2D", "config": {"name": "conv2d_296", "trainable": true, "dtype": "float32", "filters": 8, "kernel_size": [3, 3], "strides": [1, 1], "padding": "same", "data_format": "channels_last", "dilation_rate": [1, 1], "groups": 1, "activation": "linear", "use_bias": false, "kernel_initializer": {"class_name": "GlorotUniform", "config": {"seed": null}}, "bias_initializer": {"class_name": "Zeros", "config": {}}, "kernel_regularizer": null, "bias_regularizer": null, "activity_regularizer": null, "kernel_constraint": null, "bias_constraint": null}, "name": "conv2d_296", "inbound_nodes": [[["batch_normalization_439", 0, 0, {}]]]}, {"class_name": "BatchNormalization", "config": {"name": "batch_normalization_497", "trainable": true, "dtype": "float32", "axis": [3], "momentum": 0.99, "epsilon": 0.001, "center": true, "scale": false, "beta_initializer": {"class_name": "Zeros", "config": {}}, "gamma_initializer": {"class_name": "Ones", "config": {}}, "moving_mean_initializer": {"class_name": "Zeros", "config": {}}, "moving_variance_initializer": {"class_name": "Ones", "config": {}}, "beta_regularizer": null, "gamma_regularizer": null, "beta_constraint": null, "gamma_constraint": null}, "name": "batch_normalization_497", "inbound_nodes": [[["conv2d_333", 0, 0, {}]]]}, {"class_name": "BatchNormalization", "config": {"name": "batch_normalization_501", "trainable": true, "dtype": "float32", "axis": [3], "momentum": 0.99, "epsilon": 0.001, "center": true, "scale": true, "beta_initializer": {"class_name": "Zeros", "config": {}}, "gamma_initializer": {"class_name": "Ones", "config": {}}, "moving_mean_initializer": {"class_name": "Zeros", "config": {}}, "moving_variance_initializer": {"class_name": "Ones", "config": {}}, "beta_regularizer": null, "gamma_regularizer": null, "beta_constraint": null, "gamma_constraint": null}, "name": "batch_normalization_501", "inbound_nodes": [[["concatenate_75", 0, 0, {}]]]}, {"class_name": "Conv2D", "config": {"name": "conv2d_295", "trainable": true, "dtype": "float32", "filters": 8, "kernel_size": [1, 1], "strides": [1, 1], "padding": "same", "data_format": "channels_last", "dilation_rate": [1, 1], "groups": 1, "activation": "linear", "use_bias": false, "kernel_initializer": {"class_name": "GlorotUniform", "config": {"seed": null}}, "bias_initializer": {"class_name": "Zeros", "config": {}}, "kernel_regularizer": null, "bias_regularizer": null, "activity_regularizer": null, "kernel_constraint": null, "bias_constraint": null}, "name": "conv2d_295", "inbound_nodes": [[["batch_normalization_439", 0, 0, {}]]]}, {"class_name": "BatchNormalization", "config": {"name": "batch_normalization_441", "trainable": true, "dtype": "float32", "axis": [3], "momentum": 0.99, "epsilon": 0.001, "center": true, "scale": false, "beta_initializer": {"class_name": "Zeros", "config": {}}, "gamma_initializer": {"class_name": "Ones", "config": {}}, "moving_mean_initializer": {"class_name": "Zeros", "config": {}}, "moving_variance_initializer": {"class_name": "Ones", "config": {}}, "beta_regularizer": null, "gamma_regularizer": null, "beta_constraint": null, "gamma_constraint": null}, "name": "batch_normalization_441", "inbound_nodes": [[["conv2d_296", 0, 0, {}]]]}, {"class_name": "Add", "config": {"name": "add_112", "trainable": true, "dtype": "float32"}, "name": "add_112", "inbound_nodes": [[["batch_normalization_497", 0, 0, {}], ["batch_normalization_501", 0, 0, {}]]]}, {"class_name": "BatchNormalization", "config": {"name": "batch_normalization_440", "trainable": true, "dtype": "float32", "axis": [3], "momentum": 0.99, "epsilon": 0.001, "center": true, "scale": false, "beta_initializer": {"class_name": "Zeros", "config": {}}, "gamma_initializer": {"class_name": "Ones", "config": {}}, "moving_mean_initializer": {"class_name": "Zeros", "config": {}}, "moving_variance_initializer": {"class_name": "Ones", "config": {}}, "beta_regularizer": null, "gamma_regularizer": null, "beta_constraint": null, "gamma_constraint": null}, "name": "batch_normalization_440", "inbound_nodes": [[["conv2d_295", 0, 0, {}]]]}, {"class_name": "Activation", "config": {"name": "activation_295", "trainable": true, "dtype": "float32", "activation": "relu"}, "name": "activation_295", "inbound_nodes": [[["batch_normalization_441", 0, 0, {}]]]}, {"class_name": "Activation", "config": {"name": "activation_336", "trainable": true, "dtype": "float32", "activation": "relu"}, "name": "activation_336", "inbound_nodes": [[["add_112", 0, 0, {}]]]}, {"class_name": "Add", "config": {"name": "add_99", "trainable": true, "dtype": "float32"}, "name": "add_99", "inbound_nodes": [[["batch_normalization_440", 0, 0, {}], ["activation_295", 0, 0, {}]]]}, {"class_name": "BatchNormalization", "config": {"name": "batch_normalization_502", "trainable": true, "dtype": "float32", "axis": [3], "momentum": 0.99, "epsilon": 0.001, "center": true, "scale": true, "beta_initializer": {"class_name": "Zeros", "config": {}}, "gamma_initializer": {"class_name": "Ones", "config": {}}, "moving_mean_initializer": {"class_name": "Zeros", "config": {}}, "moving_variance_initializer": {"class_name": "Ones", "config": {}}, "beta_regularizer": null, "gamma_regularizer": null, "beta_constraint": null, "gamma_constraint": null}, "name": "batch_normalization_502", "inbound_nodes": [[["activation_336", 0, 0, {}]]]}, {"class_name": "Activation", "config": {"name": "activation_296", "trainable": true, "dtype": "float32", "activation": "relu"}, "name": "activation_296", "inbound_nodes": [[["add_99", 0, 0, {}]]]}, {"class_name": "Conv2DTranspose", "config": {"name": "conv2d_transpose_23", "trainable": true, "dtype": "float32", "filters": 8, "kernel_size": [2, 2], "strides": [2, 2], "padding": "same", "data_format": "channels_last", "dilation_rate": [1, 1], "groups": 1, "activation": "linear", "use_bias": true, "kernel_initializer": {"class_name": "GlorotUniform", "config": {"seed": null}}, "bias_initializer": {"class_name": "Zeros", "config": {}}, "kernel_regularizer": null, "bias_regularizer": null, "activity_regularizer": null, "kernel_constraint": null, "bias_constraint": null, "output_padding": null}, "name": "conv2d_transpose_23", "inbound_nodes": [[["batch_normalization_502", 0, 0, {}]]]}, {"class_name": "BatchNormalization", "config": {"name": "batch_normalization_442", "trainable": true, "dtype": "float32", "axis": [3], "momentum": 0.99, "epsilon": 0.001, "center": true, "scale": true, "beta_initializer": {"class_name": "Zeros", "config": {}}, "gamma_initializer": {"class_name": "Ones", "config": {}}, "moving_mean_initializer": {"class_name": "Zeros", "config": {}}, "moving_variance_initializer": {"class_name": "Ones", "config": {}}, "beta_regularizer": null, "gamma_regularizer": null, "beta_constraint": null, "gamma_constraint": null}, "name": "batch_normalization_442", "inbound_nodes": [[["activation_296", 0, 0, {}]]]}, {"class_name": "Concatenate", "config": {"name": "concatenate_76", "trainable": true, "dtype": "float32", "axis": 3}, "name": "concatenate_76", "inbound_nodes": [[["conv2d_transpose_23", 0, 0, {}], ["batch_normalization_442", 0, 0, {}]]]}, {"class_name": "Conv2D", "config": {"name": "conv2d_338", "trainable": true, "dtype": "float32", "filters": 2, "kernel_size": [3, 3], "strides": [1, 1], "padding": "same", "data_format": "channels_last", "dilation_rate": [1, 1], "groups": 1, "activation": "linear", "use_bias": false, "kernel_initializer": {"class_name": "GlorotUniform", "config": {"seed": null}}, "bias_initializer": {"class_name": "Zeros", "config": {}}, "kernel_regularizer": null, "bias_regularizer": null, "activity_regularizer": null, "kernel_constraint": null, "bias_constraint": null}, "name": "conv2d_338", "inbound_nodes": [[["concatenate_76", 0, 0, {}]]]}, {"class_name": "BatchNormalization", "config": {"name": "batch_normalization_504", "trainable": true, "dtype": "float32", "axis": [3], "momentum": 0.99, "epsilon": 0.001, "center": true, "scale": false, "beta_initializer": {"class_name": "Zeros", "config": {}}, "gamma_initializer": {"class_name": "Ones", "config": {}}, "moving_mean_initializer": {"class_name": "Zeros", "config": {}}, "moving_variance_initializer": {"class_name": "Ones", "config": {}}, "beta_regularizer": null, "gamma_regularizer": null, "beta_constraint": null, "gamma_constraint": null}, "name": "batch_normalization_504", "inbound_nodes": [[["conv2d_338", 0, 0, {}]]]}, {"class_name": "Activation", "config": {"name": "activation_337", "trainable": true, "dtype": "float32", "activation": "relu"}, "name": "activation_337", "inbound_nodes": [[["batch_normalization_504", 0, 0, {}]]]}, {"class_name": "Conv2D", "config": {"name": "conv2d_339", "trainable": true, "dtype": "float32", "filters": 4, "kernel_size": [3, 3], "strides": [1, 1], "padding": "same", "data_format": "channels_last", "dilation_rate": [1, 1], "groups": 1, "activation": "linear", "use_bias": false, "kernel_initializer": {"class_name": "GlorotUniform", "config": {"seed": null}}, "bias_initializer": {"class_name": "Zeros", "config": {}}, "kernel_regularizer": null, "bias_regularizer": null, "activity_regularizer": null, "kernel_constraint": null, "bias_constraint": null}, "name": "conv2d_339", "inbound_nodes": [[["activation_337", 0, 0, {}]]]}, {"class_name": "BatchNormalization", "config": {"name": "batch_normalization_505", "trainable": true, "dtype": "float32", "axis": [3], "momentum": 0.99, "epsilon": 0.001, "center": true, "scale": false, "beta_initializer": {"class_name": "Zeros", "config": {}}, "gamma_initializer": {"class_name": "Ones", "config": {}}, "moving_mean_initializer": {"class_name": "Zeros", "config": {}}, "moving_variance_initializer": {"class_name": "Ones", "config": {}}, "beta_regularizer": null, "gamma_regularizer": null, "beta_constraint": null, "gamma_constraint": null}, "name": "batch_normalization_505", "inbound_nodes": [[["conv2d_339", 0, 0, {}]]]}, {"class_name": "Activation", "config": {"name": "activation_338", "trainable": true, "dtype": "float32", "activation": "relu"}, "name": "activation_338", "inbound_nodes": [[["batch_normalization_505", 0, 0, {}]]]}, {"class_name": "Conv2D", "config": {"name": "conv2d_340", "trainable": true, "dtype": "float32", "filters": 6, "kernel_size": [3, 3], "strides": [1, 1], "padding": "same", "data_format": "channels_last", "dilation_rate": [1, 1], "groups": 1, "activation": "linear", "use_bias": false, "kernel_initializer": {"class_name": "GlorotUniform", "config": {"seed": null}}, "bias_initializer": {"class_name": "Zeros", "config": {}}, "kernel_regularizer": null, "bias_regularizer": null, "activity_regularizer": null, "kernel_constraint": null, "bias_constraint": null}, "name": "conv2d_340", "inbound_nodes": [[["activation_338", 0, 0, {}]]]}, {"class_name": "BatchNormalization", "config": {"name": "batch_normalization_506", "trainable": true, "dtype": "float32", "axis": [3], "momentum": 0.99, "epsilon": 0.001, "center": true, "scale": false, "beta_initializer": {"class_name": "Zeros", "config": {}}, "gamma_initializer": {"class_name": "Ones", "config": {}}, "moving_mean_initializer": {"class_name": "Zeros", "config": {}}, "moving_variance_initializer": {"class_name": "Ones", "config": {}}, "beta_regularizer": null, "gamma_regularizer": null, "beta_constraint": null, "gamma_constraint": null}, "name": "batch_normalization_506", "inbound_nodes": [[["conv2d_340", 0, 0, {}]]]}, {"class_name": "Activation", "config": {"name": "activation_339", "trainable": true, "dtype": "float32", "activation": "relu"}, "name": "activation_339", "inbound_nodes": [[["batch_normalization_506", 0, 0, {}]]]}, {"class_name": "Conv2D", "config": {"name": "conv2d_337", "trainable": true, "dtype": "float32", "filters": 12, "kernel_size": [1, 1], "strides": [1, 1], "padding": "same", "data_format": "channels_last", "dilation_rate": [1, 1], "groups": 1, "activation": "linear", "use_bias": false, "kernel_initializer": {"class_name": "GlorotUniform", "config": {"seed": null}}, "bias_initializer": {"class_name": "Zeros", "config": {}}, "kernel_regularizer": null, "bias_regularizer": null, "activity_regularizer": null, "kernel_constraint": null, "bias_constraint": null}, "name": "conv2d_337", "inbound_nodes": [[["concatenate_76", 0, 0, {}]]]}, {"class_name": "Concatenate", "config": {"name": "concatenate_77", "trainable": true, "dtype": "float32", "axis": 3}, "name": "concatenate_77", "inbound_nodes": [[["activation_337", 0, 0, {}], ["activation_338", 0, 0, {}], ["activation_339", 0, 0, {}]]]}, {"class_name": "BatchNormalization", "config": {"name": "batch_normalization_503", "trainable": true, "dtype": "float32", "axis": [3], "momentum": 0.99, "epsilon": 0.001, "center": true, "scale": false, "beta_initializer": {"class_name": "Zeros", "config": {}}, "gamma_initializer": {"class_name": "Ones", "config": {}}, "moving_mean_initializer": {"class_name": "Zeros", "config": {}}, "moving_variance_initializer": {"class_name": "Ones", "config": {}}, "beta_regularizer": null, "gamma_regularizer": null, "beta_constraint": null, "gamma_constraint": null}, "name": "batch_normalization_503", "inbound_nodes": [[["conv2d_337", 0, 0, {}]]]}, {"class_name": "BatchNormalization", "config": {"name": "batch_normalization_507", "trainable": true, "dtype": "float32", "axis": [3], "momentum": 0.99, "epsilon": 0.001, "center": true, "scale": true, "beta_initializer": {"class_name": "Zeros", "config": {}}, "gamma_initializer": {"class_name": "Ones", "config": {}}, "moving_mean_initializer": {"class_name": "Zeros", "config": {}}, "moving_variance_initializer": {"class_name": "Ones", "config": {}}, "beta_regularizer": null, "gamma_regularizer": null, "beta_constraint": null, "gamma_constraint": null}, "name": "batch_normalization_507", "inbound_nodes": [[["concatenate_77", 0, 0, {}]]]}, {"class_name": "Add", "config": {"name": "add_113", "trainable": true, "dtype": "float32"}, "name": "add_113", "inbound_nodes": [[["batch_normalization_503", 0, 0, {}], ["batch_normalization_507", 0, 0, {}]]]}, {"class_name": "Activation", "config": {"name": "activation_340", "trainable": true, "dtype": "float32", "activation": "relu"}, "name": "activation_340", "inbound_nodes": [[["add_113", 0, 0, {}]]]}, {"class_name": "BatchNormalization", "config": {"name": "batch_normalization_508", "trainable": true, "dtype": "float32", "axis": [3], "momentum": 0.99, "epsilon": 0.001, "center": true, "scale": true, "beta_initializer": {"class_name": "Zeros", "config": {}}, "gamma_initializer": {"class_name": "Ones", "config": {}}, "moving_mean_initializer": {"class_name": "Zeros", "config": {}}, "moving_variance_initializer": {"class_name": "Ones", "config": {}}, "beta_regularizer": null, "gamma_regularizer": null, "beta_constraint": null, "gamma_constraint": null}, "name": "batch_normalization_508", "inbound_nodes": [[["activation_340", 0, 0, {}]]]}, {"class_name": "Conv2D", "config": {"name": "conv2d_341", "trainable": true, "dtype": "float32", "filters": 1, "kernel_size": [1, 1], "strides": [1, 1], "padding": "same", "data_format": "channels_last", "dilation_rate": [1, 1], "groups": 1, "activation": "linear", "use_bias": false, "kernel_initializer": {"class_name": "GlorotUniform", "config": {"seed": null}}, "bias_initializer": {"class_name": "Zeros", "config": {}}, "kernel_regularizer": null, "bias_regularizer": null, "activity_regularizer": null, "kernel_constraint": null, "bias_constraint": null}, "name": "conv2d_341", "inbound_nodes": [[["batch_normalization_508", 0, 0, {}]]]}, {"class_name": "BatchNormalization", "config": {"name": "batch_normalization_509", "trainable": true, "dtype": "float32", "axis": [3], "momentum": 0.99, "epsilon": 0.001, "center": true, "scale": false, "beta_initializer": {"class_name": "Zeros", "config": {}}, "gamma_initializer": {"class_name": "Ones", "config": {}}, "moving_mean_initializer": {"class_name": "Zeros", "config": {}}, "moving_variance_initializer": {"class_name": "Ones", "config": {}}, "beta_regularizer": null, "gamma_regularizer": null, "beta_constraint": null, "gamma_constraint": null}, "name": "batch_normalization_509", "inbound_nodes": [[["conv2d_341", 0, 0, {}]]]}, {"class_name": "Activation", "config": {"name": "activation_341", "trainable": true, "dtype": "float32", "activation": "sigmoid"}, "name": "activation_341", "inbound_nodes": [[["batch_normalization_509", 0, 0, {}]]]}], "input_layers": [["input_8", 0, 0]], "output_layers": [["activation_341", 0, 0]]}}, "training_config": {"loss": "binary_crossentropy", "metrics": [[{"class_name": "MeanMetricWrapper", "config": {"name": "accuracy", "dtype": "float32", "fn": "binary_accuracy"}}, {"class_name": "MeanIoU", "config": {"num_classes": 2, "name": "mean_io_u", "dtype": "float32"}}]], "weighted_metrics": null, "loss_weights": null, "optimizer_config": {"class_name": "Adam", "config": {"name": "Adam", "learning_rate": 0.0010000000474974513, "decay": 0.0, "beta_1": 0.8999999761581421, "beta_2": 0.9990000128746033, "epsilon": 1e-07, "amsgrad": false}}}}, "weightsManifest": [{"paths": ["group1-shard1of1.bin"], "weights": [{"name": "batch_normalization_425/beta", "shape": [12], "dtype": "float32"}, {"name": "batch_normalization_425/moving_mean", "shape": [12], "dtype": "float32"}, {"name": "batch_normalization_425/moving_variance", "shape": [12], "dtype": "float32"}, {"name": "batch_normalization_426/beta", "shape": [2], "dtype": "float32"}, {"name": "batch_normalization_426/moving_mean", "shape": [2], "dtype": "float32"}, {"name": "batch_normalization_426/moving_variance", "shape": [2], "dtype": "float32"}, {"name": "batch_normalization_427/beta", "shape": [4], "dtype": "float32"}, {"name": "batch_normalization_427/moving_mean", "shape": [4], "dtype": "float32"}, {"name": "batch_normalization_427/moving_variance", "shape": [4], "dtype": "float32"}, {"name": "batch_normalization_428/beta", "shape": [6], "dtype": "float32"}, {"name": "batch_normalization_428/moving_mean", "shape": [6], "dtype": "float32"}, {"name": "batch_normalization_428/moving_variance", "shape": [6], "dtype": "float32"}, {"name": "batch_normalization_429/gamma", "shape": [12], "dtype": "float32"}, {"name": "batch_normalization_429/beta", "shape": [12], "dtype": "float32"}, {"name": "batch_normalization_429/moving_mean", "shape": [12], "dtype": "float32"}, {"name": "batch_normalization_429/moving_variance", "shape": [12], "dtype": "float32"}, {"name": "batch_normalization_430/gamma", "shape": [12], "dtype": "float32"}, {"name": "batch_normalization_430/beta", "shape": [12], "dtype": "float32"}, {"name": "batch_normalization_430/moving_mean", "shape": [12], "dtype": "float32"}, {"name": "batch_normalization_430/moving_variance", "shape": [12], "dtype": "float32"}, {"name": "batch_normalization_431/beta", "shape": [8], "dtype": "float32"}, {"name": "batch_normalization_431/moving_mean", "shape": [8], "dtype": "float32"}, {"name": "batch_normalization_431/moving_variance", "shape": [8], "dtype": "float32"}, {"name": "batch_normalization_432/beta", "shape": [8], "dtype": "float32"}, {"name": "batch_normalization_432/moving_mean", "shape": [8], "dtype": "float32"}, {"name": "batch_normalization_432/moving_variance", "shape": [8], "dtype": "float32"}, {"name": "batch_normalization_433/gamma", "shape": [8], "dtype": "float32"}, {"name": "batch_normalization_433/beta", "shape": [8], "dtype": "float32"}, {"name": "batch_normalization_433/moving_mean", "shape": [8], "dtype": "float32"}, {"name": "batch_normalization_433/moving_variance", "shape": [8], "dtype": "float32"}, {"name": "batch_normalization_434/beta", "shape": [8], "dtype": "float32"}, {"name": "batch_normalization_434/moving_mean", "shape": [8], "dtype": "float32"}, {"name": "batch_normalization_434/moving_variance", "shape": [8], "dtype": "float32"}, {"name": "batch_normalization_435/beta", "shape": [8], "dtype": "float32"}, {"name": "batch_normalization_435/moving_mean", "shape": [8], "dtype": "float32"}, {"name": "batch_normalization_435/moving_variance", "shape": [8], "dtype": "float32"}, {"name": "batch_normalization_436/gamma", "shape": [8], "dtype": "float32"}, {"name": "batch_normalization_436/beta", "shape": [8], "dtype": "float32"}, {"name": "batch_normalization_436/moving_mean", "shape": [8], "dtype": "float32"}, {"name": "batch_normalization_436/moving_variance", "shape": [8], "dtype": "float32"}, {"name": "batch_normalization_437/beta", "shape": [8], "dtype": "float32"}, {"name": "batch_normalization_437/moving_mean", "shape": [8], "dtype": "float32"}, {"name": "batch_normalization_437/moving_variance", "shape": [8], "dtype": "float32"}, {"name": "batch_normalization_438/beta", "shape": [8], "dtype": "float32"}, {"name": "batch_normalization_438/moving_mean", "shape": [8], "dtype": "float32"}, {"name": "batch_normalization_438/moving_variance", "shape": [8], "dtype": "float32"}, {"name": "batch_normalization_439/gamma", "shape": [8], "dtype": "float32"}, {"name": "batch_normalization_439/beta", "shape": [8], "dtype": "float32"}, {"name": "batch_normalization_439/moving_mean", "shape": [8], "dtype": "float32"}, {"name": "batch_normalization_439/moving_variance", "shape": [8], "dtype": "float32"}, {"name": "batch_normalization_440/beta", "shape": [8], "dtype": "float32"}, {"name": "batch_normalization_440/moving_mean", "shape": [8], "dtype": "float32"}, {"name": "batch_normalization_440/moving_variance", "shape": [8], "dtype": "float32"}, {"name": "batch_normalization_441/beta", "shape": [8], "dtype": "float32"}, {"name": "batch_normalization_441/moving_mean", "shape": [8], "dtype": "float32"}, {"name": "batch_normalization_441/moving_variance", "shape": [8], "dtype": "float32"}, {"name": "batch_normalization_442/gamma", "shape": [8], "dtype": "float32"}, {"name": "batch_normalization_442/beta", "shape": [8], "dtype": "float32"}, {"name": "batch_normalization_442/moving_mean", "shape": [8], "dtype": "float32"}, {"name": "batch_normalization_442/moving_variance", "shape": [8], "dtype": "float32"}, {"name": "batch_normalization_443/beta", "shape": [25], "dtype": "float32"}, {"name": "batch_normalization_443/moving_mean", "shape": [25], "dtype": "float32"}, {"name": "batch_normalization_443/moving_variance", "shape": [25], "dtype": "float32"}, {"name": "batch_normalization_444/beta", "shape": [4], "dtype": "float32"}, {"name": "batch_normalization_444/moving_mean", "shape": [4], "dtype": "float32"}, {"name": "batch_normalization_444/moving_variance", "shape": [4], "dtype": "float32"}, {"name": "batch_normalization_445/beta", "shape": [8], "dtype": "float32"}, {"name": "batch_normalization_445/moving_mean", "shape": [8], "dtype": "float32"}, {"name": "batch_normalization_445/moving_variance", "shape": [8], "dtype": "float32"}, {"name": "batch_normalization_446/beta", "shape": [13], "dtype": "float32"}, {"name": "batch_normalization_446/moving_mean", "shape": [13], "dtype": "float32"}, {"name": "batch_normalization_446/moving_variance", "shape": [13], "dtype": "float32"}, {"name": "batch_normalization_447/gamma", "shape": [25], "dtype": "float32"}, {"name": "batch_normalization_447/beta", "shape": [25], "dtype": "float32"}, {"name": "batch_normalization_447/moving_mean", "shape": [25], "dtype": "float32"}, {"name": "batch_normalization_447/moving_variance", "shape": [25], "dtype": "float32"}, {"name": "batch_normalization_448/gamma", "shape": [25], "dtype": "float32"}, {"name": "batch_normalization_448/beta", "shape": [25], "dtype": "float32"}, {"name": "batch_normalization_448/moving_mean", "shape": [25], "dtype": "float32"}, {"name": "batch_normalization_448/moving_variance", "shape": [25], "dtype": "float32"}, {"name": "batch_normalization_449/beta", "shape": [16], "dtype": "float32"}, {"name": "batch_normalization_449/moving_mean", "shape": [16], "dtype": "float32"}, {"name": "batch_normalization_449/moving_variance", "shape": [16], "dtype": "float32"}, {"name": "batch_normalization_450/beta", "shape": [16], "dtype": "float32"}, {"name": "batch_normalization_450/moving_mean", "shape": [16], "dtype": "float32"}, {"name": "batch_normalization_450/moving_variance", "shape": [16], "dtype": "float32"}, {"name": "batch_normalization_451/gamma", "shape": [16], "dtype": "float32"}, {"name": "batch_normalization_451/beta", "shape": [16], "dtype": "float32"}, {"name": "batch_normalization_451/moving_mean", "shape": [16], "dtype": "float32"}, {"name": "batch_normalization_451/moving_variance", "shape": [16], "dtype": "float32"}, {"name": "batch_normalization_452/beta", "shape": [16], "dtype": "float32"}, {"name": "batch_normalization_452/moving_mean", "shape": [16], "dtype": "float32"}, {"name": "batch_normalization_452/moving_variance", "shape": [16], "dtype": "float32"}, {"name": "batch_normalization_453/beta", "shape": [16], "dtype": "float32"}, {"name": "batch_normalization_453/moving_mean", "shape": [16], "dtype": "float32"}, {"name": "batch_normalization_453/moving_variance", "shape": [16], "dtype": "float32"}, {"name": "batch_normalization_454/gamma", "shape": [16], "dtype": "float32"}, {"name": "batch_normalization_454/beta", "shape": [16], "dtype": "float32"}, {"name": "batch_normalization_454/moving_mean", "shape": [16], "dtype": "float32"}, {"name": "batch_normalization_454/moving_variance", "shape": [16], "dtype": "float32"}, {"name": "batch_normalization_455/beta", "shape": [16], "dtype": "float32"}, {"name": "batch_normalization_455/moving_mean", "shape": [16], "dtype": "float32"}, {"name": "batch_normalization_455/moving_variance", "shape": [16], "dtype": "float32"}, {"name": "batch_normalization_456/beta", "shape": [16], "dtype": "float32"}, {"name": "batch_normalization_456/moving_mean", "shape": [16], "dtype": "float32"}, {"name": "batch_normalization_456/moving_variance", "shape": [16], "dtype": "float32"}, {"name": "batch_normalization_457/gamma", "shape": [16], "dtype": "float32"}, {"name": "batch_normalization_457/beta", "shape": [16], "dtype": "float32"}, {"name": "batch_normalization_457/moving_mean", "shape": [16], "dtype": "float32"}, {"name": "batch_normalization_457/moving_variance", "shape": [16], "dtype": "float32"}, {"name": "batch_normalization_458/beta", "shape": [51], "dtype": "float32"}, {"name": "batch_normalization_458/moving_mean", "shape": [51], "dtype": "float32"}, {"name": "batch_normalization_458/moving_variance", "shape": [51], "dtype": "float32"}, {"name": "batch_normalization_459/beta", "shape": [8], "dtype": "float32"}, {"name": "batch_normalization_459/moving_mean", "shape": [8], "dtype": "float32"}, {"name": "batch_normalization_459/moving_variance", "shape": [8], "dtype": "float32"}, {"name": "batch_normalization_460/beta", "shape": [17], "dtype": "float32"}, {"name": "batch_normalization_460/moving_mean", "shape": [17], "dtype": "float32"}, {"name": "batch_normalization_460/moving_variance", "shape": [17], "dtype": "float32"}, {"name": "batch_normalization_461/beta", "shape": [26], "dtype": "float32"}, {"name": "batch_normalization_461/moving_mean", "shape": [26], "dtype": "float32"}, {"name": "batch_normalization_461/moving_variance", "shape": [26], "dtype": "float32"}, {"name": "batch_normalization_462/gamma", "shape": [51], "dtype": "float32"}, {"name": "batch_normalization_462/beta", "shape": [51], "dtype": "float32"}, {"name": "batch_normalization_462/moving_mean", "shape": [51], "dtype": "float32"}, {"name": "batch_normalization_462/moving_variance", "shape": [51], "dtype": "float32"}, {"name": "batch_normalization_463/gamma", "shape": [51], "dtype": "float32"}, {"name": "batch_normalization_463/beta", "shape": [51], "dtype": "float32"}, {"name": "batch_normalization_463/moving_mean", "shape": [51], "dtype": "float32"}, {"name": "batch_normalization_463/moving_variance", "shape": [51], "dtype": "float32"}, {"name": "batch_normalization_464/beta", "shape": [32], "dtype": "float32"}, {"name": "batch_normalization_464/moving_mean", "shape": [32], "dtype": "float32"}, {"name": "batch_normalization_464/moving_variance", "shape": [32], "dtype": "float32"}, {"name": "batch_normalization_465/beta", "shape": [32], "dtype": "float32"}, {"name": "batch_normalization_465/moving_mean", "shape": [32], "dtype": "float32"}, {"name": "batch_normalization_465/moving_variance", "shape": [32], "dtype": "float32"}, {"name": "batch_normalization_466/gamma", "shape": [32], "dtype": "float32"}, {"name": "batch_normalization_466/beta", "shape": [32], "dtype": "float32"}, {"name": "batch_normalization_466/moving_mean", "shape": [32], "dtype": "float32"}, {"name": "batch_normalization_466/moving_variance", "shape": [32], "dtype": "float32"}, {"name": "batch_normalization_467/beta", "shape": [32], "dtype": "float32"}, {"name": "batch_normalization_467/moving_mean", "shape": [32], "dtype": "float32"}, {"name": "batch_normalization_467/moving_variance", "shape": [32], "dtype": "float32"}, {"name": "batch_normalization_468/beta", "shape": [32], "dtype": "float32"}, {"name": "batch_normalization_468/moving_mean", "shape": [32], "dtype": "float32"}, {"name": "batch_normalization_468/moving_variance", "shape": [32], "dtype": "float32"}, {"name": "batch_normalization_469/gamma", "shape": [32], "dtype": "float32"}, {"name": "batch_normalization_469/beta", "shape": [32], "dtype": "float32"}, {"name": "batch_normalization_469/moving_mean", "shape": [32], "dtype": "float32"}, {"name": "batch_normalization_469/moving_variance", "shape": [32], "dtype": "float32"}, {"name": "batch_normalization_470/beta", "shape": [105], "dtype": "float32"}, {"name": "batch_normalization_470/moving_mean", "shape": [105], "dtype": "float32"}, {"name": "batch_normalization_470/moving_variance", "shape": [105], "dtype": "float32"}, {"name": "batch_normalization_471/beta", "shape": [17], "dtype": "float32"}, {"name": "batch_normalization_471/moving_mean", "shape": [17], "dtype": "float32"}, {"name": "batch_normalization_471/moving_variance", "shape": [17], "dtype": "float32"}, {"name": "batch_normalization_472/beta", "shape": [35], "dtype": "float32"}, {"name": "batch_normalization_472/moving_mean", "shape": [35], "dtype": "float32"}, {"name": "batch_normalization_472/moving_variance", "shape": [35], "dtype": "float32"}, {"name": "batch_normalization_473/beta", "shape": [53], "dtype": "float32"}, {"name": "batch_normalization_473/moving_mean", "shape": [53], "dtype": "float32"}, {"name": "batch_normalization_473/moving_variance", "shape": [53], "dtype": "float32"}, {"name": "batch_normalization_474/gamma", "shape": [105], "dtype": "float32"}, {"name": "batch_normalization_474/beta", "shape": [105], "dtype": "float32"}, {"name": "batch_normalization_474/moving_mean", "shape": [105], "dtype": "float32"}, {"name": "batch_normalization_474/moving_variance", "shape": [105], "dtype": "float32"}, {"name": "batch_normalization_475/gamma", "shape": [105], "dtype": "float32"}, {"name": "batch_normalization_475/beta", "shape": [105], "dtype": "float32"}, {"name": "batch_normalization_475/moving_mean", "shape": [105], "dtype": "float32"}, {"name": "batch_normalization_475/moving_variance", "shape": [105], "dtype": "float32"}, {"name": "batch_normalization_476/beta", "shape": [64], "dtype": "float32"}, {"name": "batch_normalization_476/moving_mean", "shape": [64], "dtype": "float32"}, {"name": "batch_normalization_476/moving_variance", "shape": [64], "dtype": "float32"}, {"name": "batch_normalization_477/beta", "shape": [64], "dtype": "float32"}, {"name": "batch_normalization_477/moving_mean", "shape": [64], "dtype": "float32"}, {"name": "batch_normalization_477/moving_variance", "shape": [64], "dtype": "float32"}, {"name": "batch_normalization_478/gamma", "shape": [64], "dtype": "float32"}, {"name": "batch_normalization_478/beta", "shape": [64], "dtype": "float32"}, {"name": "batch_normalization_478/moving_mean", "shape": [64], "dtype": "float32"}, {"name": "batch_normalization_478/moving_variance", "shape": [64], "dtype": "float32"}, {"name": "batch_normalization_479/beta", "shape": [212], "dtype": "float32"}, {"name": "batch_normalization_479/moving_mean", "shape": [212], "dtype": "float32"}, {"name": "batch_normalization_479/moving_variance", "shape": [212], "dtype": "float32"}, {"name": "batch_normalization_480/beta", "shape": [35], "dtype": "float32"}, {"name": "batch_normalization_480/moving_mean", "shape": [35], "dtype": "float32"}, {"name": "batch_normalization_480/moving_variance", "shape": [35], "dtype": "float32"}, {"name": "batch_normalization_481/beta", "shape": [71], "dtype": "float32"}, {"name": "batch_normalization_481/moving_mean", "shape": [71], "dtype": "float32"}, {"name": "batch_normalization_481/moving_variance", "shape": [71], "dtype": "float32"}, {"name": "batch_normalization_482/beta", "shape": [106], "dtype": "float32"}, {"name": "batch_normalization_482/moving_mean", "shape": [106], "dtype": "float32"}, {"name": "batch_normalization_482/moving_variance", "shape": [106], "dtype": "float32"}, {"name": "batch_normalization_483/gamma", "shape": [212], "dtype": "float32"}, {"name": "batch_normalization_483/beta", "shape": [212], "dtype": "float32"}, {"name": "batch_normalization_483/moving_mean", "shape": [212], "dtype": "float32"}, {"name": "batch_normalization_483/moving_variance", "shape": [212], "dtype": "float32"}, {"name": "batch_normalization_484/gamma", "shape": [212], "dtype": "float32"}, {"name": "batch_normalization_484/beta", "shape": [212], "dtype": "float32"}, {"name": "batch_normalization_484/moving_mean", "shape": [212], "dtype": "float32"}, {"name": "batch_normalization_484/moving_variance", "shape": [212], "dtype": "float32"}, {"name": "batch_normalization_485/beta", "shape": [105], "dtype": "float32"}, {"name": "batch_normalization_485/moving_mean", "shape": [105], "dtype": "float32"}, {"name": "batch_normalization_485/moving_variance", "shape": [105], "dtype": "float32"}, {"name": "batch_normalization_486/beta", "shape": [17], "dtype": "float32"}, {"name": "batch_normalization_486/moving_mean", "shape": [17], "dtype": "float32"}, {"name": "batch_normalization_486/moving_variance", "shape": [17], "dtype": "float32"}, {"name": "batch_normalization_487/beta", "shape": [35], "dtype": "float32"}, {"name": "batch_normalization_487/moving_mean", "shape": [35], "dtype": "float32"}, {"name": "batch_normalization_487/moving_variance", "shape": [35], "dtype": "float32"}, {"name": "batch_normalization_488/beta", "shape": [53], "dtype": "float32"}, {"name": "batch_normalization_488/moving_mean", "shape": [53], "dtype": "float32"}, {"name": "batch_normalization_488/moving_variance", "shape": [53], "dtype": "float32"}, {"name": "batch_normalization_489/gamma", "shape": [105], "dtype": "float32"}, {"name": "batch_normalization_489/beta", "shape": [105], "dtype": "float32"}, {"name": "batch_normalization_489/moving_mean", "shape": [105], "dtype": "float32"}, {"name": "batch_normalization_489/moving_variance", "shape": [105], "dtype": "float32"}, {"name": "batch_normalization_490/gamma", "shape": [105], "dtype": "float32"}, {"name": "batch_normalization_490/beta", "shape": [105], "dtype": "float32"}, {"name": "batch_normalization_490/moving_mean", "shape": [105], "dtype": "float32"}, {"name": "batch_normalization_490/moving_variance", "shape": [105], "dtype": "float32"}, {"name": "batch_normalization_491/beta", "shape": [51], "dtype": "float32"}, {"name": "batch_normalization_491/moving_mean", "shape": [51], "dtype": "float32"}, {"name": "batch_normalization_491/moving_variance", "shape": [51], "dtype": "float32"}, {"name": "batch_normalization_492/beta", "shape": [8], "dtype": "float32"}, {"name": "batch_normalization_492/moving_mean", "shape": [8], "dtype": "float32"}, {"name": "batch_normalization_492/moving_variance", "shape": [8], "dtype": "float32"}, {"name": "batch_normalization_493/beta", "shape": [17], "dtype": "float32"}, {"name": "batch_normalization_493/moving_mean", "shape": [17], "dtype": "float32"}, {"name": "batch_normalization_493/moving_variance", "shape": [17], "dtype": "float32"}, {"name": "batch_normalization_494/beta", "shape": [26], "dtype": "float32"}, {"name": "batch_normalization_494/moving_mean", "shape": [26], "dtype": "float32"}, {"name": "batch_normalization_494/moving_variance", "shape": [26], "dtype": "float32"}, {"name": "batch_normalization_495/gamma", "shape": [51], "dtype": "float32"}, {"name": "batch_normalization_495/beta", "shape": [51], "dtype": "float32"}, {"name": "batch_normalization_495/moving_mean", "shape": [51], "dtype": "float32"}, {"name": "batch_normalization_495/moving_variance", "shape": [51], "dtype": "float32"}, {"name": "batch_normalization_496/gamma", "shape": [51], "dtype": "float32"}, {"name": "batch_normalization_496/beta", "shape": [51], "dtype": "float32"}, {"name": "batch_normalization_496/moving_mean", "shape": [51], "dtype": "float32"}, {"name": "batch_normalization_496/moving_variance", "shape": [51], "dtype": "float32"}, {"name": "batch_normalization_497/beta", "shape": [25], "dtype": "float32"}, {"name": "batch_normalization_497/moving_mean", "shape": [25], "dtype": "float32"}, {"name": "batch_normalization_497/moving_variance", "shape": [25], "dtype": "float32"}, {"name": "batch_normalization_498/beta", "shape": [4], "dtype": "float32"}, {"name": "batch_normalization_498/moving_mean", "shape": [4], "dtype": "float32"}, {"name": "batch_normalization_498/moving_variance", "shape": [4], "dtype": "float32"}, {"name": "batch_normalization_499/beta", "shape": [8], "dtype": "float32"}, {"name": "batch_normalization_499/moving_mean", "shape": [8], "dtype": "float32"}, {"name": "batch_normalization_499/moving_variance", "shape": [8], "dtype": "float32"}, {"name": "batch_normalization_500/beta", "shape": [13], "dtype": "float32"}, {"name": "batch_normalization_500/moving_mean", "shape": [13], "dtype": "float32"}, {"name": "batch_normalization_500/moving_variance", "shape": [13], "dtype": "float32"}, {"name": "batch_normalization_501/gamma", "shape": [25], "dtype": "float32"}, {"name": "batch_normalization_501/beta", "shape": [25], "dtype": "float32"}, {"name": "batch_normalization_501/moving_mean", "shape": [25], "dtype": "float32"}, {"name": "batch_normalization_501/moving_variance", "shape": [25], "dtype": "float32"}, {"name": "batch_normalization_502/gamma", "shape": [25], "dtype": "float32"}, {"name": "batch_normalization_502/beta", "shape": [25], "dtype": "float32"}, {"name": "batch_normalization_502/moving_mean", "shape": [25], "dtype": "float32"}, {"name": "batch_normalization_502/moving_variance", "shape": [25], "dtype": "float32"}, {"name": "batch_normalization_503/beta", "shape": [12], "dtype": "float32"}, {"name": "batch_normalization_503/moving_mean", "shape": [12], "dtype": "float32"}, {"name": "batch_normalization_503/moving_variance", "shape": [12], "dtype": "float32"}, {"name": "batch_normalization_504/beta", "shape": [2], "dtype": "float32"}, {"name": "batch_normalization_504/moving_mean", "shape": [2], "dtype": "float32"}, {"name": "batch_normalization_504/moving_variance", "shape": [2], "dtype": "float32"}, {"name": "batch_normalization_505/beta", "shape": [4], "dtype": "float32"}, {"name": "batch_normalization_505/moving_mean", "shape": [4], "dtype": "float32"}, {"name": "batch_normalization_505/moving_variance", "shape": [4], "dtype": "float32"}, {"name": "batch_normalization_506/beta", "shape": [6], "dtype": "float32"}, {"name": "batch_normalization_506/moving_mean", "shape": [6], "dtype": "float32"}, {"name": "batch_normalization_506/moving_variance", "shape": [6], "dtype": "float32"}, {"name": "batch_normalization_507/gamma", "shape": [12], "dtype": "float32"}, {"name": "batch_normalization_507/beta", "shape": [12], "dtype": "float32"}, {"name": "batch_normalization_507/moving_mean", "shape": [12], "dtype": "float32"}, {"name": "batch_normalization_507/moving_variance", "shape": [12], "dtype": "float32"}, {"name": "batch_normalization_508/gamma", "shape": [12], "dtype": "float32"}, {"name": "batch_normalization_508/beta", "shape": [12], "dtype": "float32"}, {"name": "batch_normalization_508/moving_mean", "shape": [12], "dtype": "float32"}, {"name": "batch_normalization_508/moving_variance", "shape": [12], "dtype": "float32"}, {"name": "batch_normalization_509/beta", "shape": [1], "dtype": "float32"}, {"name": "batch_normalization_509/moving_mean", "shape": [1], "dtype": "float32"}, {"name": "batch_normalization_509/moving_variance", "shape": [1], "dtype": "float32"}, {"name": "conv2d_285/kernel", "shape": [1, 1, 3, 12], "dtype": "float32"}, {"name": "conv2d_286/kernel", "shape": [3, 3, 3, 2], "dtype": "float32"}, {"name": "conv2d_287/kernel", "shape": [3, 3, 2, 4], "dtype": "float32"}, {"name": "conv2d_288/kernel", "shape": [3, 3, 4, 6], "dtype": "float32"}, {"name": "conv2d_289/kernel", "shape": [1, 1, 12, 8], "dtype": "float32"}, {"name": "conv2d_290/kernel", "shape": [3, 3, 12, 8], "dtype": "float32"}, {"name": "conv2d_291/kernel", "shape": [1, 1, 8, 8], "dtype": "float32"}, {"name": "conv2d_292/kernel", "shape": [3, 3, 8, 8], "dtype": "float32"}, {"name": "conv2d_293/kernel", "shape": [1, 1, 8, 8], "dtype": "float32"}, {"name": "conv2d_294/kernel", "shape": [3, 3, 8, 8], "dtype": "float32"}, {"name": "conv2d_295/kernel", "shape": [1, 1, 8, 8], "dtype": "float32"}, {"name": "conv2d_296/kernel", "shape": [3, 3, 8, 8], "dtype": "float32"}, {"name": "conv2d_297/kernel", "shape": [1, 1, 12, 25], "dtype": "float32"}, {"name": "conv2d_298/kernel", "shape": [3, 3, 12, 4], "dtype": "float32"}, {"name": "conv2d_299/kernel", "shape": [3, 3, 4, 8], "dtype": "float32"}, {"name": "conv2d_300/kernel", "shape": [3, 3, 8, 13], "dtype": "float32"}, {"name": "conv2d_301/kernel", "shape": [1, 1, 25, 16], "dtype": "float32"}, {"name": "conv2d_302/kernel", "shape": [3, 3, 25, 16], "dtype": "float32"}, {"name": "conv2d_303/kernel", "shape": [1, 1, 16, 16], "dtype": "float32"}, {"name": "conv2d_304/kernel", "shape": [3, 3, 16, 16], "dtype": "float32"}, {"name": "conv2d_305/kernel", "shape": [1, 1, 16, 16], "dtype": "float32"}, {"name": "conv2d_306/kernel", "shape": [3, 3, 16, 16], "dtype": "float32"}, {"name": "conv2d_307/kernel", "shape": [1, 1, 25, 51], "dtype": "float32"}, {"name": "conv2d_308/kernel", "shape": [3, 3, 25, 8], "dtype": "float32"}, {"name": "conv2d_309/kernel", "shape": [3, 3, 8, 17], "dtype": "float32"}, {"name": "conv2d_310/kernel", "shape": [3, 3, 17, 26], "dtype": "float32"}, {"name": "conv2d_311/kernel", "shape": [1, 1, 51, 32], "dtype": "float32"}, {"name": "conv2d_312/kernel", "shape": [3, 3, 51, 32], "dtype": "float32"}, {"name": "conv2d_313/kernel", "shape": [1, 1, 32, 32], "dtype": "float32"}, {"name": "conv2d_314/kernel", "shape": [3, 3, 32, 32], "dtype": "float32"}, {"name": "conv2d_315/kernel", "shape": [1, 1, 51, 105], "dtype": "float32"}, {"name": "conv2d_316/kernel", "shape": [3, 3, 51, 17], "dtype": "float32"}, {"name": "conv2d_317/kernel", "shape": [3, 3, 17, 35], "dtype": "float32"}, {"name": "conv2d_318/kernel", "shape": [3, 3, 35, 53], "dtype": "float32"}, {"name": "conv2d_319/kernel", "shape": [1, 1, 105, 64], "dtype": "float32"}, {"name": "conv2d_320/kernel", "shape": [3, 3, 105, 64], "dtype": "float32"}, {"name": "conv2d_321/kernel", "shape": [1, 1, 105, 212], "dtype": "float32"}, {"name": "conv2d_322/kernel", "shape": [3, 3, 105, 35], "dtype": "float32"}, {"name": "conv2d_323/kernel", "shape": [3, 3, 35, 71], "dtype": "float32"}, {"name": "conv2d_324/kernel", "shape": [3, 3, 71, 106], "dtype": "float32"}, {"name": "conv2d_325/kernel", "shape": [1, 1, 128, 105], "dtype": "float32"}, {"name": "conv2d_326/kernel", "shape": [3, 3, 128, 17], "dtype": "float32"}, {"name": "conv2d_327/kernel", "shape": [3, 3, 17, 35], "dtype": "float32"}, {"name": "conv2d_328/kernel", "shape": [3, 3, 35, 53], "dtype": "float32"}, {"name": "conv2d_329/kernel", "shape": [1, 1, 64, 51], "dtype": "float32"}, {"name": "conv2d_330/kernel", "shape": [3, 3, 64, 8], "dtype": "float32"}, {"name": "conv2d_331/kernel", "shape": [3, 3, 8, 17], "dtype": "float32"}, {"name": "conv2d_332/kernel", "shape": [3, 3, 17, 26], "dtype": "float32"}, {"name": "conv2d_333/kernel", "shape": [1, 1, 32, 25], "dtype": "float32"}, {"name": "conv2d_334/kernel", "shape": [3, 3, 32, 4], "dtype": "float32"}, {"name": "conv2d_335/kernel", "shape": [3, 3, 4, 8], "dtype": "float32"}, {"name": "conv2d_336/kernel", "shape": [3, 3, 8, 13], "dtype": "float32"}, {"name": "conv2d_337/kernel", "shape": [1, 1, 16, 12], "dtype": "float32"}, {"name": "conv2d_338/kernel", "shape": [3, 3, 16, 2], "dtype": "float32"}, {"name": "conv2d_339/kernel", "shape": [3, 3, 2, 4], "dtype": "float32"}, {"name": "conv2d_340/kernel", "shape": [3, 3, 4, 6], "dtype": "float32"}, {"name": "conv2d_341/kernel", "shape": [1, 1, 12, 1], "dtype": "float32"}, {"name": "conv2d_transpose_20/kernel", "shape": [2, 2, 64, 212], "dtype": "float32"}, {"name": "conv2d_transpose_20/bias", "shape": [64], "dtype": "float32"}, {"name": "conv2d_transpose_21/kernel", "shape": [2, 2, 32, 105], "dtype": "float32"}, {"name": "conv2d_transpose_21/bias", "shape": [32], "dtype": "float32"}, {"name": "conv2d_transpose_22/kernel", "shape": [2, 2, 16, 51], "dtype": "float32"}, {"name": "conv2d_transpose_22/bias", "shape": [16], "dtype": "float32"}, {"name": "conv2d_transpose_23/kernel", "shape": [2, 2, 8, 25], "dtype": "float32"}, {"name": "conv2d_transpose_23/bias", "shape": [8], "dtype": "float32"}]}]}